checkpoints/checkpoint_epoch_100.pth (torch, 912944 bytes, 22 tensors)

encoder.0.conv.weight f4 [64, 3, 3, 3]
00000000: b1aa 163e 9991 233e d8ab 38bd 9b07 353e
00000010: c8b6 2cbd 1011 1f3d 52e3 bfbd 6678 e73d
00000020: 85b9 2d3e 4693 10be a14a 2b3e 7888 133d
00000030: a398 113e 6083 d53c 6e0c be3d 4898 debc
00000040: e9ea 173e 4007 e93c cfff b7bd 1cee 483d
00000050: fe97 b5bd f8e2 b8bc 1515 a0bd d3ba 023e
00000060: 708f 1bbe 9cb3 b5bd d096 5ebd f4fb ecbd
00000070: c0cc 943c 0ea4 42be 87f9 313e 5d67 27be
00000080: 8124 183e 242f 033d e8f4 7fbd b28e f33d
00000090: e8b4 f53c 7539 1f3e 1859 ac3c d899 78bd
000000a0: f8cb 533d 9cc3 55bd 3ae0 a53d 8df2 2f3e
000000b0: cad5 e33d 644e acbd 9685 e33d 0c0b 0d3d
000000c0: 2e28 c83d 9e3a f0bd 8614 43be 7f47 98bd
000000d0: 0628 17be e3b3 213e 500c 633d da41 a33d
000000e0: 0c4d 793d c067 5bbb 4d3a 1a3e 2705 0cbe
000000f0: f087 463c e881 06be fc10 733d ecbb 87bd
00000100: 5c8a 713d 003b 24bd 8572 233e 319b e9bd
00000110: 2010 ebbd c213 ebbd 8f40 313e ca58 833d
00000120: 33a1 3d3e e3a2 22be ca77 43be f82d 1abe
00000130: ec90 04be 42a4 9f3d 9a21 8d3d d5bf 233e
00000140: f28a cbbd 1d58 06be f21e d13d f04f 9fbd
00000150: 2e36 ef3d ec0e 3bbd 0677 e13d c11d 19be
00000160: cbe6 c6bd 9c53 703d bca5 263d 50fa 48bd
00000170: faee ea3d 21f8 053e bce8 0ebe ea6a d2bd
00000180: cf72 343e b2fe 84bd 72ba 8bbd ccae 3ebe
00000190: 02b6 e1bd 04ea 443d 1018 d0bc af0c 0fbe
000001a0: 40ec 933b 379d 06be 4e31 27be 7609 d9bd
000001b0: 227a 2cbe 68f6 fabd e7fd 443e b0e2 143d
000001c0: 2cea 723d 96cd 37be 006e 01be ea30 83bd
000001d0: f086 f63c b667 2dbe c7d2 a9bd 39f5 ebbd
000001e0: 00cf 0b3a f2a8 92bd 207f 5abc 2c8a 05be
000001f0: 6344 07be d1f0 e5bd 90e9 86bd ef8a 1bbe
00000200: 7f3c 253e c071 1cbd b38e 293e d49c 753d
00000210: 9ae0 26be ed60 083e d4e3 58bd 5215 97bd
00000220: c194 23be 0beb 43be b888 613d a831 2cbd
00000230: 6a72 993d 2cba 21be 474f 123e bea8 10be
00000240: 3c1d 08bd 98a5 243d 6e79 cb3d 8318 1f3e
00000250: 9185 333e a242 1cbe 1862 463d 6587 a9bd
00000260: 20c4 acbc 0e81 13be 7d80 333e 89a3 10be
00000270: bea5 d23d fe83 8a3d d213 803d cf16 d5bd
00000280: 4720 333e 5039 2d3d c0ce ca3c fcaa 2dbe
00000290: 5a74 a53d e083 ecbc 6890 b4bd 8b45 293e
000002a0: bcbe 2f3d 3011 dabd 0d7d c7bd 2094 16bc
000002b0: 3e12 dc3d 5c6e 49bd 97e2 e0bd 3cf8 86bd
000002c0: a839 13be f68f 8c3d 0d8a 183e 5387 39be
000002d0: dc13 373d be9b cb3d 00f0 0e3d b85c 8cbd
000002e0: 96b7 cd3d e61f cf3d fe60 933d 5484 0abd
000002f0: 84bc 50bd 30a9 a83c 8c40 0bbd 2ce8 6abd
00000300: 82ef fb3d 655c 293e 0813 9cbc 107e 30bd
00000310: 400b 383b 2044 3cbc a482 3d3d bce6 5c3d
00000320: 39fd 32be a473 91bd 21f5 253e d289 993d
00000330: e0d3 1cbc c1a0 edbd b022 f1bd 1d87 30be
00000340: 6079 80bd 1a1a 853d 8e4f fb3d eef8 b53d
00000350: a832 2ebe 0905 edbd 58ce f8bc 6fa2 3e3e
00000360: 580f e43c ec23 4cbd 920f a33d ac1e 96bd
00000370: a01b ffbd 8bd6 0f3e 1437 b3bd e805 1ebd
00000380: 840b 44be 75e4 033e 654e 153e 8ea4 8f3d
00000390: 3b69 09be c27e 42be 220e 20be 4ff4 123e
000003a0: 523a bd3d 99d5 253e 167a ce3d a081 473d
000003b0: 0005 f7ba 41df 15be d8d7 28be 0054 38be
000003c0: 5258 a13d 5082 c1bd 7ca4 1ebd 10d4 e2bd
000003d0: 74a4 0fbd 37b4 0abe 96c4 00be 62bd 823d
000003e0: cc45 6abd 7a51 f33d c0e2 7cbd 3390 10be
000003f0: 2015 0bbd a90e bfbd 902a 71bd d59b 3bbe
0.14713551 0.1597351 -0.045085758 0.17678683 -0.0421665 0.03883463 -0.0936953 0.11302261
0.16965301 -0.1411868 0.16727687 0.03601882 0.14218383 0.026063621 0.092797145 -0.027172223
0.14835705 0.02844584 -0.089843385 0.049055204 -0.08866881 -0.022569165 -0.07816521 0.1276658
-0.15191436 -0.088721484 -0.054343045 -0.11571494 0.018164039 -0.19007894 0.17380343 -0.16348024
0.14857675 0.03202738 -0.06248942 0.11892451 0.02999349 0.15549262 0.021038577 -0.06069359
0.05170819 -0.0521885 0.080994084 0.1718237 0.111247614 -0.08413389 0.11109464 0.034434363
0.09773289 -0.1172993 -0.19050798 -0.07435512 -0.14761361 0.15791278 0.055431664 0.079715446
0.060864493 -0.0033478588 0.15061302 -0.1367384 0.012117371 -0.13135493 0.05934237 -0.0662764
0.05896984 -0.04009533 0.15961654 -0.114065535 -0.11477685 -0.11478378 0.17309783 0.064134195
0.18518524 -0.15882449 -0.19088665 -0.15056598 -0.12945908 0.077950016 0.068911746 0.15991147
-0.09938611 -0.1311955 0.102109805 -0.07778919 0.11680256 -0.045668527 0.1100903 -0.14952756
-0.09711989 0.058673486 0.0406854 -0.04906684 0.114713624 0.13082935 -0.13955969 -0.102742985
0.17621921 -0.06493892 -0.06822671 -0.18621367 -0.11021043 0.048074737 -0.025402099 -0.13969682
0.004514247 -0.1314591 -0.16327402 -0.10597508 -0.16843465 -0.122540295 0.19237481 0.036349
0.059305355 -0.17949519 -0.12639618 -0.06405814 0.03009364 -0.16934094 -0.08292156 -0.11521382
0.00053332746 -0.0716113 -0.013335973 -0.1304099 -0.13209681 -0.11227573 -0.06587517 -0.15189718
0.16136359 -0.038194418 0.16558342 0.059964016 -0.16296616 0.13318224 -0.05295165 -0.073771134
-0.15974714 -0.1913263 0.055062026 -0.042039543 0.07492526 -0.15793675 0.14288054 -0.1412687
-0.033231005 0.040196985 0.0993527 0.15536694 0.1753142 -0.15259793 0.048433393 -0.082777776
-0.021089613 -0.14404699 0.17529483 -0.14124884 0.10285519 0.06763457 0.062537804 -0.10404741
0.17492782 0.042290986 0.02475679 -0.16959757 0.08078833 -0.028871477 -0.08816606 0.16530435
0.042906508 -0.106478095 -0.097406484 -0.009190589 0.10745667 -0.049177513 -0.109807186 -0.06590316
-0.14377463 0.06863396 0.14896412 -0.18118028 0.044696674 0.09941815 0.03489685 -0.06853622
0.10044782 0.10113506 0.07196234 -0.033817604 -0.050961033 0.020588487 -0.033997104 -0.057350323
0.12301542 0.16539152 -0.019052044 -0.043088973 0.0028082877 -0.011490852 0.046267167 0.053930983
-0.1747941 -0.07102135 0.1620679 0.0749699 -0.009571999 -0.11602927 -0.11774194 -0.17239042
-0.062731504 0.06499119 0.12271033 0.0888537 -0.17011511 -0.11573226 -0.03037183 0.18616651
0.027839348 -0.049838945 0.07961954 -0.07330069 -0.12456441 0.14046685 -0.0875074 -0.03857985
-0.19145018 0.12880118 0.14580686 0.07013808 -0.13419048 -0.18993667 -0.15630391 0.14351009
0.09239639 0.16194762 0.1008188 0.048707604 -0.0018846095 -0.14635946 -0.16488588 -0.18000793
0.07878174 -0.09448683 -0.038731083 -0.11075604 -0.035068944 -0.13545309 -0.12574992 0.06383778
-0.05719547 0.11880775 -0.061739683 -0.14117508 -0.033955693 -0.09328968 -0.05887848 -0.18321164

encoder.0.norm.weight f4 [64]
00000000: 0000 803f 0000 803f 0000 803f 0000 803f
00000010: 0000 803f 0000 803f 0000 803f 0000 803f
00000020: 0000 803f 0000 803f 0000 803f 0000 803f
00000030: 0000 803f 0000 803f 0000 803f 0000 803f
00000040: 0000 803f 0000 803f 0000 803f 0000 803f
00000050: 0000 803f 0000 803f 0000 803f 0000 803f
00000060: 0000 803f 0000 803f 0000 803f 0000 803f
00000070: 0000 803f 0000 803f 0000 803f 0000 803f
00000080: 0000 803f 0000 803f 0000 803f 0000 803f
00000090: 0000 803f 0000 803f 0000 803f 0000 803f
000000a0: 0000 803f 0000 803f 0000 803f 0000 803f
000000b0: 0000 803f 0000 803f 0000 803f 0000 803f
000000c0: 0000 803f 0000 803f 0000 803f 0000 803f
000000d0: 0000 803f 0000 803f 0000 803f 0000 803f
000000e0: 0000 803f 0000 803f 0000 803f 0000 803f
000000f0: 0000 803f 0000 803f 0000 803f 0000 803f
1.0 1.0 1.0 1.0 1.0 1.0 1.0 1.0
1.0 1.0 1.0 1.0 1.0 1.0 1.0 1.0
1.0 1.0 1.0 1.0 1.0 1.0 1.0 1.0
1.0 1.0 1.0 1.0 1.0 1.0 1.0 1.0
1.0 1.0 1.0 1.0 1.0 1.0 1.0 1.0
1.0 1.0 1.0 1.0 1.0 1.0 1.0 1.0
1.0 1.0 1.0 1.0 1.0 1.0 1.0 1.0
1.0 1.0 1.0 1.0 1.0 1.0 1.0 1.0

encoder.0.norm.bias f4 [64]
00000000: 0000 0000 0000 0000 0000 0000 0000 0000
00000010: 0000 0000 0000 0000 0000 0000 0000 0000
00000020: 0000 0000 0000 0000 0000 0000 0000 0000
00000030: 0000 0000 0000 0000 0000 0000 0000 0000
00000040: 0000 0000 0000 0000 0000 0000 0000 0000
00000050: 0000 0000 0000 0000 0000 0000 0000 0000
00000060: 0000 0000 0000 0000 0000 0000 0000 0000
00000070: 0000 0000 0000 0000 0000 0000 0000 0000
00000080: 0000 0000 0000 0000 0000 0000 0000 0000
00000090: 0000 0000 0000 0000 0000 0000 0000 0000
000000a0: 0000 0000 0000 0000 0000 0000 0000 0000
000000b0: 0000 0000 0000 0000 0000 0000 0000 0000
000000c0: 0000 0000 0000 0000 0000 0000 0000 0000
000000d0: 0000 0000 0000 0000 0000 0000 0000 0000
000000e0: 0000 0000 0000 0000 0000 0000 0000 0000
000000f0: 0000 0000 0000 0000 0000 0000 0000 0000
0.0 0.0 0.0 0.0 0.0 0.0 0.0 0.0
0.0 0.0 0.0 0.0 0.0 0.0 0.0 0.0
0.0 0.0 0.0 0.0 0.0 0.0 0.0 0.0
0.0 0.0 0.0 0.0 0.0 0.0 0.0 0.0
0.0 0.0 0.0 0.0 0.0 0.0 0.0 0.0
0.0 0.0 0.0 0.0 0.0 0.0 0.0 0.0
0.0 0.0 0.0 0.0 0.0 0.0 0.0 0.0
0.0 0.0 0.0 0.0 0.0 0.0 0.0 0.0

encoder.1.conv.weight f4 [64, 64, 3, 3]
00000000: 042d 023c b3dd b4bc 486e 9ebc 992f 133d
00000010: fadd a43c 9cb2 3abc a8fa c83b 7c45 043c
00000020: 94e8 1f3c 8ca9 69bc 9b01 c9bc 06fc e13c
00000030: a076 b73b 6edd 8e3c e845 81bc da54 a53c
00000040: 2269 f83c 0297 cf3c 3c9d 393c 81ea 273d
00000050: 001a bfb8 7456 113c cf27 223d d5de 253d
00000060: 281e 90bc b3bc 193d ecf1 7b3c 08d5 98bb
00000070: 5504 153d 16d2 b0bc e6c7 dd3c 031f 293d
00000080: 186b ebbc 1b6b c9bc b31d 29bd 68b5 f5bb
00000090: 0600 1bbd dca3 64bc 1c41 4f3c ea47 f13c
000000a0: 7a22 be3c b677 bd3c 5a9b 8d3c d0b4 d3bc
000000b0: 2b82 07bd 8064 e23a e90f 223d 90c0 193b
000000c0: 40dd 6abb fbac e7bc 033f a9bc 8c8f 03bd
000000d0: bda5 083d 0874 debb b7c4 16bd 3877 923b
000000e0: d028 463b 60af a8bb bc5e 743c de8f b73c
000000f0: 267f 20bd 0fbf 02bd 502e 03bb 443b 1ebd
00000100: d806 1bbd f3ae 163d 70b1 4fbb 7ec0 a8bc
00000110: 8c2a 6abc 4a3e 05bd b32e 053d 5407 14bc
00000120: 1be9 bfbc 906f 01bd 8681 c73c 60bb bcbb
00000130: 2870 8fbb f6ec 31bc f8c4 a4bc 28e1 f23b
00000140: 4f4e 033d 7ed4 c5bc 70d5 023b 56cb 01bd
00000150: db0c a0bc 5bce 153d 800c e539 0d68 243d
00000160: 4836 efbb b00a babc 53f1 cbbc ad43 173d
00000170: 8e3d 03bd 3a21 b33c e4b2 293c bc75 493c
00000180: 0a98 c03c ec99 32bc 6234 d33c 57f9 07bd
00000190: bc30 70bc c2de f93c 049a 4a3c 28d3 b5bb
000001a0: 706c 1fbc 506c d0bc de8f cf3c e0ab adba
000001b0: 20c7 b8ba 3c72 213c eae2 fb3c 8024 aebc
000001c0: d01b 6bbc 4e4c e73c 92c6 c03c 10ea a7bc
000001d0: 6fd5 28bd e848 fd3b 5281 b33c 500f 233c
000001e0: d61c f23c 6a6b 07bd 3221 ac3c 2b33 d4bc
000001f0: ce1a c03c c2da fd3c 2436 583c 0115 0a3d
00000200: 8bfd e0bc e0a3 18bd ce18 24bd c24c d63c
00000210: 1c25 6f3c 73f2 f9bc 1a4d a53c e7b7 1b3d
00000220: a74a 28bd 429c f73c b867 d13b 5002 7e3b
00000230: 9190 193d d78d 1a3d 3ad2 8f3c 85d9 063d
00000240: c600 8e3c 3878 de3b 9404 16bd 4805 ff3b
00000250: 20d7 f2bc 842b 523c 20e4 f03b c062 753a
00000260: f360 e9bc 53ea cebc d64a fc3c 603c a63c
00000270: eaf6 b33c 3c6b 4bbc f81a ebbb c6f3 2ebc
00000280: 92bb ea3c 7659 93bc 6efe d63c e258 eb3c
00000290: 9015 1cbd 8066 8539 2c04 02bc 5bb2 bcbc
000002a0: 0e5c 933c 98e1 a5bb 896b 153d 53a4 d5bc
000002b0: 1e98 9e3c c6b6 11bd 6b15 abbc 5044 3a3b
000002c0: b3d7 063d 6ec9 b33c c621 0cbd 583b 973b
000002d0: 6836 c9bc 60a3 ec3a 872d 0ebd bc46 48bc
000002e0: ee1b ea3c c497 1cbd acb7 22bd 08b0 f83b
000002f0: 782a bb3b 20b3 f9bb 3907 153d 5683 cdbc
00000300: 7b37 cfbc 7623 ffbc 881e febb 4c38 2ebc
00000310: ee32 d33c 0053 19bb 1403 5a3c e6d7 8dbc
00000320: 8971 0a3d 0de0 0f3d 02d8 18bd f071 2fbc
00000330: 6bcf 10bd f001 913c ce1b 15bd ee62 a1bc
00000340: 8386 2a3d 0ff9 22bd 5ad6 fb3c 30af 663b
00000350: 9378 083d 1839 adbc 8e32 e03c 88bb a43b
00000360: b005 523b 92f8 e83c 2b39 22bd b476 09bd
00000370: d9d2 243d 30f8 ccbc 2309 f6bc d083 05bb
00000380: f685 5abc 38cb babb 3bb0 e4bc ac51 763c
00000390: 04db 12bd 302a 5d3b 762e c73c 342a 033c
000003a0: 6069 b53b 00b3 c73b d0fc 47bc fc0b 02bc
000003b0: 20f0 8fbc 9694 e6bc 96b8 b4bc dfb6 283d
000003c0: 587f e4bb ac22 6f3c ea0c ec3c 5050 55bb
000003d0: e6a0 b7bc 4344 e7bc 267f 7bbc 2cab 733c
000003e0: 78ba 0fbd e8b3 a6bb b0d6 813c 413d 0b3d
000003f0: 6c6f 4d3c 3c02 073c 72ac e93c dab9 9d3c
0.007945303 -0.02207837 -0.019339696 0.035934065 0.020125378 -0.011395123 0.006133396 0.008073207
0.009760041 -0.0142616145 -0.024536898 0.027585994 0.005598858 0.01743957 -0.015780404 0.020182062
0.030323569 0.02534056 0.0113289915 0.040995125 -9.1124326e-05 0.00887071 0.039588746 0.040495712
-0.017592505 0.037533473 0.015377503 -0.004664067 0.036381084 -0.021584552 0.027072858 0.04128934
-0.02873759 -0.024587205 -0.04128809 -0.007498432 -0.03784182 -0.013955083 0.012649801 0.029453237
0.0232098 0.023128372 0.017285991 -0.025843054 -0.033083122 0.0017272383 0.039565954 0.0023460723
-0.0035837442 -0.028280726 -0.02065993 -0.03211932 0.033361185 -0.0067887343 -0.036808696 0.0044697784
0.0030236728 -0.0051478595 0.014915165 0.022407468 -0.03918376 -0.03192049 -0.0020016618 -0.03863074
-0.037848324 0.03678794 -0.0031691454 -0.0205996 -0.0142923705 -0.032530107 0.03251524 -0.00903495
-0.023426583 -0.031600535 0.024353754 -0.0057596415 -0.0043773837 -0.010859719 -0.020113453 0.0074120946
0.032057103 -0.024149176 0.0019963644 -0.031688057 -0.01953738 0.03657375 0.00043687597 0.040138293
-0.007300172 -0.022710174 -0.024895346 0.036929775 -0.032041125 0.02186643 0.010357592 0.0122961365
0.023509998 -0.010900956 0.025781814 -0.033196773 -0.014660057 0.030501727 0.012365822 -0.0055488534
-0.009730443 -0.025442272 0.025337156 -0.0013250075 -0.001409743 0.009853896 0.03074785 -0.021257639
-0.014349893 0.028234627 0.023532186 -0.020497352 -0.04121917 0.0077296384 0.02191225 0.009952381
0.029554766 -0.033061422 0.021011923 -0.025903305 0.023450281 0.0309881 0.013196502 0.033711437
-0.027464649 -0.03726566 -0.040062718 0.026159648 0.01459625 -0.030511117 0.020178366 0.03801718
-0.04108682 0.030225877 0.006390538 0.0038758703 0.037491385 0.037732925 0.017556299 0.032922287
0.017334353 0.0067892335 -0.03662546 0.007782612 -0.029643595 0.012827758 0.0073514134 0.0009360723
-0.028488612 -0.025258219 0.030797403 0.02029246 0.021968324 -0.012415703 -0.007174846 -0.010678237
0.028653894 -0.017986994 0.026244368 0.028728906 -0.0381065 0.00025444105 -0.007935565 -0.023034265
0.017988231 -0.0050622933 0.036479507 -0.026079332 0.019359645 -0.035574697 -0.020884236 0.0028422065
0.03292055 0.021946635 -0.034211896 0.0046152286 -0.024562076 0.0018054061 -0.034711387 -0.012223896
0.028577771 -0.038230672 -0.039725944 0.007589344 0.00571185 -0.0076202303 0.03638384 -0.02508704
-0.02529501 -0.031144839 -0.0077551045 -0.010633539 0.025781121 -0.002339542 0.013306398 -0.017314862
0.03379968 0.03512578 -0.037315376 -0.010708317 -0.03535406 0.01770112 -0.03640347 -0.019700494
0.041632187 -0.039788302 0.03074186 0.0035199635 0.033318114 -0.021145388 0.027367856 0.0050272383
0.0032046847 0.02843884 -0.0396053 -0.03356047 0.040240142 -0.025020689 -0.030033654 -0.0020372756
-0.013337603 -0.005700495 -0.027916064 0.0150341205 -0.0358534 0.003374707 0.024314146 0.0080056675
0.0055362433 0.0060943365 -0.012206271 -0.007937428 -0.017570555 -0.028147023 -0.022060674 0.041190024
-0.0069731884 0.014595669 0.028814752 -0.003254909 -0.02241559 -0.028230792 -0.015350139 0.0148723535
-0.03508994 -0.0050873645 0.015849441 0.033993963 0.012538772 0.008240279 0.028524611 0.01925366

encoder.1.norm.weight f4 [64]
00000000: 0000 803f 0000 803f 0000 803f 0000 803f
00000010: 0000 803f 0000 803f 0000 803f 0000 803f
00000020: 0000 803f 0000 803f 0000 803f 0000 803f
00000030: 0000 803f 0000 803f 0000 803f 0000 803f
00000040: 0000 803f 0000 803f 0000 803f 0000 803f
00000050: 0000 803f 0000 803f 0000 803f 0000 803f
00000060: 0000 803f 0000 803f 0000 803f 0000 803f
00000070: 0000 803f 0000 803f 0000 803f 0000 803f
00000080: 0000 803f 0000 803f 0000 803f 0000 803f
00000090: 0000 803f 0000 803f 0000 803f 0000 803f
000000a0: 0000 803f 0000 803f 0000 803f 0000 803f
000000b0: 0000 803f 0000 803f 0000 803f 0000 803f
000000c0: 0000 803f 0000 803f 0000 803f 0000 803f
000000d0: 0000 803f 0000 803f 0000 803f 0000 803f
000000e0: 0000 803f 0000 803f 0000 803f 0000 803f
000000f0: 0000 803f 0000 803f 0000 803f 0000 803f
1.0 1.0 1.0 1.0 1.0 1.0 1.0 1.0
1.0 1.0 1.0 1.0 1.0 1.0 1.0 1.0
1.0 1.0 1.0 1.0 1.0 1.0 1.0 1.0
1.0 1.0 1.0 1.0 1.0 1.0 1.0 1.0
1.0 1.0 1.0 1.0 1.0 1.0 1.0 1.0
1.0 1.0 1.0 1.0 1.0 1.0 1.0 1.0
1.0 1.0 1.0 1.0 1.0 1.0 1.0 1.0
1.0 1.0 1.0 1.0 1.0 1.0 1.0 1.0

encoder.1.norm.bias f4 [64]
00000000: 0000 0000 0000 0000 0000 0000 0000 0000
00000010: 0000 0000 0000 0000 0000 0000 0000 0000
00000020: 0000 0000 0000 0000 0000 0000 0000 0000
00000030: 0000 0000 0000 0000 0000 0000 0000 0000
00000040: 0000 0000 0000 0000 0000 0000 0000 0000
00000050: 0000 0000 0000 0000 0000 0000 0000 0000
00000060: 0000 0000 0000 0000 0000 0000 0000 0000
00000070: 0000 0000 0000 0000 0000 0000 0000 0000
00000080: 0000 0000 0000 0000 0000 0000 0000 0000
00000090: 0000 0000 0000 0000 0000 0000 0000 0000
000000a0: 0000 0000 0000 0000 0000 0000 0000 0000
000000b0: 0000 0000 0000 0000 0000 0000 0000 0000
000000c0: 0000 0000 0000 0000 0000 0000 0000 0000
000000d0: 0000 0000 0000 0000 0000 0000 0000 0000
000000e0: 0000 0000 0000 0000 0000 0000 0000 0000
000000f0: 0000 0000 0000 0000 0000 0000 0000 0000
0.0 0.0 0.0 0.0 0.0 0.0 0.0 0.0
0.0 0.0 0.0 0.0 0.0 0.0 0.0 0.0
0.0 0.0 0.0 0.0 0.0 0.0 0.0 0.0
0.0 0.0 0.0 0.0 0.0 0.0 0.0 0.0
0.0 0.0 0.0 0.0 0.0 0.0 0.0 0.0
0.0 0.0 0.0 0.0 0.0 0.0 0.0 0.0
0.0 0.0 0.0 0.0 0.0 0.0 0.0 0.0
0.0 0.0 0.0 0.0 0.0 0.0 0.0 0.0

encoder.2.conv.weight f4 [64, 64, 3, 3]
00000000: 6858 dfbb 5452 27bc 8ce1 2a3c 8c4e 653c
00000010: 933a 8cbc 602f 25bd d52e 043d 7817 a5bb
00000020: f6d8 dabc 1078 28bc f095 7b3b d651 24bd
00000030: 9bd6 9cbc 2d92 043d 8c4e 06bc 1264 eb3c
00000040: 4032 98bc c8e5 e5bb f86a e8bc 9028 903c
00000050: f0d7 ffbc 808c a539 ea09 05bd 6c80 20bc
00000060: 20e7 51bc 1615 b23c c81c adbb 7c33 353c
00000070: cb5c d8bc 881a acbc 14e3 133c aca7 003c
00000080: 76c5 7dbc 6b4f b9bc 98f1 eebb 3837 993b
00000090: dc7d 6d3c e0b1 243c 3753 12bd 0a2c a83c
000000a0: 480e 9ebb e69d 5cbc 706b 67bc d0fd 4dbc
000000b0: 8d0b 2a3d 58b9 b4bc b4ae 25bd fefa 823c
000000c0: 376c 28bd b116 1d3d 187e a03c 3dad 0b3d
000000d0: ceb2 9abc ad47 1b3d 10f4 9d3c 2514 083d
000000e0: 4849 b7bb e00f 67bc 153f 293d 3697 87bc
000000f0: c0c4 013b e040 963c 5264 bb3c d4c6 023c
00000100: 6c54 47bc 4c66 2c3c c023 79bc 2b7b a2bc
00000110: a05d 8d3b 0033 8d3b 4b3e 1dbd 9803 a9bc
00000120: 5cd0 7dbc 20c2 b6ba d1ee 153d b378 e6bc
00000130: f039 c0bc 6b23 233d 40e4 e33b 48c0 90bc
00000140: 50a0 1c3b 2be3 a5bc c077 583a bec6 adbc
00000150: 5075 3f3b f89d a03b c1a7 203d 4e22 b23c
00000160: 4021 b33b 2d7e 063d e521 2a3d 9814 b6bc
00000170: 2e88 f8bc 00fa 9b39 5e46 82bc a656 813c
00000180: 331d 0b3d d898 f13b 68bf 9ebb 3ecd 963c
00000190: 2a28 05bd ea8d b13c 1c0c 68bc bb27 edbc
000001a0: f87f d1bb 0d0b 253d 58df 8dbc 4b8d f3bc
000001b0: f298 d93c 00ab 38bb 9cce 41bc 26ad d83c
000001c0: 2064 953c 54dc 633c c501 243d 8e6e 14bd
000001d0: acb8 6cbc 8274 ec3c 07e6 0fbd 18c2 dbbb
000001e0: 44b4 633c 503b 353b 3caa 093c f61c b9bc
000001f0: 44bb 4f3c 0ba3 e1bc e890 b83b f8a3 b6bb
00000200: f327 043d ac9d 1dbd 1bae f1bc b347 143d
00000210: 9bd4 273d 00d4 abba dadf eb3c 88fa d3bb
00000220: ad09 1c3d c3be b8bc 63c1 a6bc 1889 b93b
00000230: 0031 98bc aab1 db3c 2ca0 62bc 1ea3 e93c
00000240: c6f4 10bd 3348 ccbc a0a7 9fbc 8cd4 373c
00000250: 79fa 293d 5a7b 943c b23b 09bd 5e14 28bd
00000260: b2b5 913c d6a5 b83c 526d fc3c be8d 07bd
00000270: e66e e8bc 09f0 0a3d e563 0a3d 20c8 f03a
00000280: 6a19 28bd e18a 263d 60ce a73c 760d 85bc
00000290: 5428 25bc c086 15ba 55f9 133d e070 cf3a
000002a0: ea4f da3c 8e33 9d3c 8814 a5bc ee26 2abd
000002b0: 3a13 db3c 334c c0bc 1044 7c3c 2e84 c73c
000002c0: ac6e 33bc 58ff d4bc 0f0e 243d 1e8c bbbc
000002d0: 3572 0c3d e1fa 083d 4557 1d3d 4f6a 1e3d
000002e0: f89d b6bb c14b 023d 939d 17bd f0a2 653b
000002f0: 2eb2 e9bc f095 febc c2d0 b43c ee9b afbc
00000300: 8067 15bc a3dc 1dbd 9351 b2bc d01a 6b3c
00000310: 1f51 1a3d 008f 2f3c c019 55bb 3344 babc
00000320: b04f d8bc 3845 c3bc fd9d 013d 6b57 92bc
00000330: 0484 773c 1e5c 873c 664a d1bc de74 b7bc
00000340: e047 3abc b6ec eabc 4d3a 293d 681f aabc
00000350: 9b1a 14bd cb20 e5bc 8097 a939 01c5 1f3d
00000360: 1675 16bd 18cc 8e3b 001f 343a 60f0 b8ba
00000370: 0046 d83b 9844 82bc b024 883c 8c72 163c
00000380: 61b5 123d 8163 073d e0c8 f03b f88f c6bc
00000390: 00a8 9738 5b63 02bd 94a0 7f3c 4446 193c
000003a0: 0024 aab9 c4a5 20bd e0f9 c9bc 465b ac3c
000003b0: f6c9 ff3c a3a8 d5bc 5347 e2bc b008 0a3c
000003c0: c6bb b23c 3c8e 6abc 801a 84bb b5aa 1e3d
000003d0: 23a5 88bc 362c 993c 6845 c0bb 6bdd 0b3d
000003e0: 72b5 8e3c 3c5f 7e3c c15d 083d 00ea 21ba
000003f0: 405d 3ebc 078b 0dbd 45b0 1d3d 324f de3c
-0.006815959 -0.0102125 0.010429751 0.013995778 -0.017117774 -0.040328383 0.032271225 -0.005038198
-0.026714783 -0.010282531 0.003838893 -0.040117107 -0.0191453 0.032365967 -0.008197438 0.02873424
-0.018578649 -0.0070159175 -0.02837132 0.017597467 -0.031230897 0.00031575933 -0.032480158 -0.009796243
-0.012811452 0.02173857 -0.005282972 0.011059638 -0.026411435 -0.021008745 0.009026308 0.007852476
-0.015488973 -0.022620877 -0.007291984 0.004675772 0.014495339 0.010052174 -0.03572389 0.020528812
-0.00482348 -0.01346538 -0.014124736 -0.012572721 0.041514922 -0.022061035 -0.040449813 0.015988823
-0.041118827 0.03835172 0.019591376 0.03410076 -0.018884089 0.037910152 0.019281417 0.033222336
-0.0055934526 -0.014102906 0.041319925 -0.016551595 0.001980111 0.018341482 0.022874985 0.007981975
-0.012166124 0.010522436 -0.015206277 -0.019834122 0.0043141395 0.004309058 -0.038389485 -0.020631596
-0.015491571 -0.0013943352 0.036604706 -0.028133726 -0.023465127 0.0398287 0.0069546998 -0.017669812
0.0023899265 -0.020249924 0.000825759 -0.021212932 0.002921421 0.004901644 0.039222483 0.021744873
0.00546661 0.032835174 0.04153623 -0.022226617 -0.030338373 0.00029750168 -0.015902694 0.015788388
0.033963393 0.0073729567 -0.0048445947 0.018408414 -0.032509007 0.021674115 -0.014163043 -0.028949609
-0.006393429 0.040293742 -0.017318413 -0.02973046 0.026562188 -0.0028178096 -0.011829045 0.026449751
0.01823622 0.013907511 0.04004075 -0.036238246 -0.014448326 0.028864149 -0.03513148 -0.0067064874
0.013897959 0.0027653761 0.008402403 -0.022596817 0.012678925 -0.027543565 0.0056325085 -0.005573746
0.03226466 -0.038480446 -0.029501965 0.03620119 0.04097424 -0.0013109446 0.028793264 -0.0064690746
0.038095165 -0.0225519 -0.020355886 0.005662095 -0.018578053 0.026818115 -0.013832133 0.028520163
-0.035389684 -0.024936771 -0.01948911 0.011220109 0.041498635 0.018125225 -0.033504196 -0.04103505
0.017786834 0.022540014 0.030813847 -0.03309416 -0.028373193 0.03392032 0.033786673 0.0018370189
-0.04103986 0.04065979 0.02048415 -0.01624177 -0.010080416 -0.0005703978 0.036126453 0.0015826486
0.026649434 0.019189622 -0.020151392 -0.041541032 0.026742566 -0.023473835 0.015397087 0.02435502
-0.010951679 -0.026000664 0.04005247 -0.022893962 0.034288604 0.03344238 0.038413305 0.038675603
-0.0055730306 0.031810526 -0.03701551 0.0035039745 -0.028527346 -0.031077355 0.0220722 -0.021436658
-0.009118915 -0.038540494 -0.021767413 0.014349654 0.03767502 0.010715246 -0.003251657 -0.022737598
-0.026405185 -0.023836717 0.03164481 -0.01786395 0.015107159 0.016523417 -0.025548171 -0.022394594
-0.011369675 -0.028677326 0.041315366 -0.020766929 -0.036158185 -0.027969738 0.00032347068 0.039006237
-0.036732756 0.004357826 0.00068710744 -0.0014109723 0.0066001415 -0.015901849 0.016619056 0.009182584
0.035817508 0.03305388 0.007348165 -0.024238572 7.2315335e-05 -0.031833034 0.01560225 0.009355132
-0.0003245175 -0.039220586 -0.024655282 0.021039616 0.031224232 -0.026081389 -0.0276219 0.008424923
0.021818053 -0.014316138 -0.0040314794 0.038737018 -0.016680306 0.01869784 -0.005867649 0.034146708
0.017420504 0.015525635 0.033292536 -0.00061765313 -0.011618912 -0.034556415 0.03849818 0.027137373

encoder.2.norm.weight f4 [64]
00000000: 0000 803f 0000 803f 0000 803f 0000 803f
00000010: 0000 803f 0000 803f 0000 803f 0000 803f
00000020: 0000 803f 0000 803f 0000 803f 0000 803f
00000030: 0000 803f 0000 803f 0000 803f 0000 803f
00000040: 0000 803f 0000 803f 0000 803f 0000 803f
00000050: 0000 803f 0000 803f 0000 803f 0000 803f
00000060: 0000 803f 0000 803f 0000 803f 0000 803f
00000070: 0000 803f 0000 803f 0000 803f 0000 803f
00000080: 0000 803f 0000 803f 0000 803f 0000 803f
00000090: 0000 803f 0000 803f 0000 803f 0000 803f
000000a0: 0000 803f 0000 803f 0000 803f 0000 803f
000000b0: 0000 803f 0000 803f 0000 803f 0000 803f
000000c0: 0000 803f 0000 803f 0000 803f 0000 803f
000000d0: 0000 803f 0000 803f 0000 803f 0000 803f
000000e0: 0000 803f 0000 803f 0000 803f 0000 803f
000000f0: 0000 803f 0000 803f 0000 803f 0000 803f
1.0 1.0 1.0 1.0 1.0 1.0 1.0 1.0
1.0 1.0 1.0 1.0 1.0 1.0 1.0 1.0
1.0 1.0 1.0 1.0 1.0 1.0 1.0 1.0
1.0 1.0 1.0 1.0 1.0 1.0 1.0 1.0
1.0 1.0 1.0 1.0 1.0 1.0 1.0 1.0
1.0 1.0 1.0 1.0 1.0 1.0 1.0 1.0
1.0 1.0 1.0 1.0 1.0 1.0 1.0 1.0
1.0 1.0 1.0 1.0 1.0 1.0 1.0 1.0

encoder.2.norm.bias f4 [64]
00000000: 0000 0000 0000 0000 0000 0000 0000 0000
00000010: 0000 0000 0000 0000 0000 0000 0000 0000
00000020: 0000 0000 0000 0000 0000 0000 0000 0000
00000030: 0000 0000 0000 0000 0000 0000 0000 0000
00000040: 0000 0000 0000 0000 0000 0000 0000 0000
00000050: 0000 0000 0000 0000 0000 0000 0000 0000
00000060: 0000 0000 0000 0000 0000 0000 0000 0000
00000070: 0000 0000 0000 0000 0000 0000 0000 0000
00000080: 0000 0000 0000 0000 0000 0000 0000 0000
00000090: 0000 0000 0000 0000 0000 0000 0000 0000
000000a0: 0000 0000 0000 0000 0000 0000 0000 0000
000000b0: 0000 0000 0000 0000 0000 0000 0000 0000
000000c0: 0000 0000 0000 0000 0000 0000 0000 0000
000000d0: 0000 0000 0000 0000 0000 0000 0000 0000
000000e0: 0000 0000 0000 0000 0000 0000 0000 0000
000000f0: 0000 0000 0000 0000 0000 0000 0000 0000
0.0 0.0 0.0 0.0 0.0 0.0 0.0 0.0
0.0 0.0 0.0 0.0 0.0 0.0 0.0 0.0
0.0 0.0 0.0 0.0 0.0 0.0 0.0 0.0
0.0 0.0 0.0 0.0 0.0 0.0 0.0 0.0
0.0 0.0 0.0 0.0 0.0 0.0 0.0 0.0
0.0 0.0 0.0 0.0 0.0 0.0 0.0 0.0
0.0 0.0 0.0 0.0 0.0 0.0 0.0 0.0
0.0 0.0 0.0 0.0 0.0 0.0 0.0 0.0

encoder.3.conv.weight f4 [64, 64, 3, 3]
00000000: 4319 023d 2249 f33c 48ec f1bc 369c cc3c
00000010: b2c0 c33c f6af 983c 500f 143c b808 e13b
00000020: 038e eabc 8ec7 a8bc 4ac1 f53c 1c1a 69bc
00000030: 9ca4 24bc 7b68 07bd 30f5 4d3b c699 36bc
00000040: 6a4a 18bd 24d6 21bc 5458 11bc 00dc b4b9
00000050: 3450 08bc eaa0 d23c 0dae 263d f3e4 ebbc
00000060: d6a4 e6bc 6aeb d13c a8a2 b3bc e460 143c
00000070: 7eae 14bd b752 09bd 12d2 24bd d870 823b
00000080: d60e 37bc 34a7 023c c009 e2bb fe22 813c
00000090: 8079 be3a 102b 03bb 1236 ad3c b0f2 1bbb
000000a0: 40a5 6dba 52c1 b63c a03d ab3b d031 54bc
000000b0: 2a90 963c 7e38 c03c 741d 1abd 266d ec3c
000000c0: 2817 9d3c 17e1 253d 0a95 d03c b0d0 7abb
000000d0: 1299 ef3c 163c 3cbc b0c2 0ebd 1efb f83c
000000e0: 8e00 29bd 1c81 08bc 9806 a33c 70c0 edbc
000000f0: e2fd e03c 2b70 1f3d 9b02 213d 625e 1cbd
00000100: 9e65 f53c 8ed5 a9bc 8ce7 1bbc 5388 243d
00000110: 9b5a fcbc 26c1 a83c 04f8 543c 56eb 8dbc
00000120: c09f 0dbb 2460 613c b396 f3bc ac1b 183c
00000130: 4aa0 fb3c 28b7 c1bc 9d49 103d 50b2 47bb
00000140: 4039 d93b 80ab bb3a ca4f d43c eaae e83c
00000150: 7035 31bc 4089 653b 8065 82b9 2672 d53c
00000160: 86f4 30bc f29b 19bd 609d b4bb 1a65 07bd
00000170: d6f7 c33c 335d f5bc 3463 653c 23a4 abbc
00000180: 40bf 09bc f0ee 05bd 6bed bebc 2438 05bd
00000190: 7ab6 ee3c e03e c83b 0832 bebc b268 ef3c
000001a0: 4031 133b 72eb ec3c 332d b0bc f077 1ebb
000001b0: 10d4 513b 833d 13bd 4656 9fbc 4bb1 d7bc
000001c0: 1e86 b53c f0bd 56bb 00dc 1e3b 726e 993c
000001d0: 76a7 bebc a925 2a3d cc4f 1ebc acd4 24bc
000001e0: 6a68 d93c 0012 eb38 e071 b73b 00f8 e7b8
000001f0: 2030 e6ba 0025 b53a b976 203d d614 a03c
00000200: 8cb8 603c 600a a0bb 6c78 0d3c a8de b73b
00000210: fae3 873c edc7 083d 0cc8 54bc 5b65 073d
00000220: 0b20 c5bc fd2c 263d 037d 9abc a8a3 9e3b
00000230: 8416 023c 093b 153d 463c e63c 4288 903c
00000240: 687c 8d3c b66f 93bc d4fe 5f3c 50be 22bc
00000250: ba32 8f3c 4077 7dbb 36d8 d53c 7e3f 963c
00000260: a620 b0bc 06ae 70bc 8475 3d3c 08da ccbc
00000270: 0323 e1bc 2498 3b3c aac7 fb3c d3fe c6bc
00000280: 4445 03bc 16d2 5ebc 65c7 193d 36b5 903c
00000290: 7bd9 22bd 27c2 24bd 53a1 063d 3277 d23c
000002a0: d057 c2bc d0ce 06bd 60b8 7cbc b0df dabc
000002b0: 8fc0 173d 34e9 0ebd 2271 c53c 3810 d93b
000002c0: 00d3 4abb 00ea f0bb 3455 0e3c 3c23 22bd
000002d0: 2667 62bc c830 f5bb 7a0c fa3c c2a0 f03c
000002e0: a4fd 09bd 4a85 873c 839d a1bc 033f bbbc
000002f0: ae7a e43c 1a42 dc3c f6b4 fbbc cd95 0d3d
00000300: c0d7 873c d023 fabc 4cc0 5bbc 5043 663b
00000310: 427b 2abd 60bd 90bc 805e acb9 ce8d abbc
00000320: 901e 323c f5ac 223d f095 62bc 5560 013d
00000330: b16a 1b3d 7e2e f6bc 1296 813c 2024 8c3c
00000340: c2db b93c 30dc 2d3c 7841 ed3b 00c3 b83a
00000350: d3fc 073d 55e9 123d c89e b23b f698 973c
00000360: 00d8 b937 e0c4 2dbc 8208 2abd c0bc 28bd
00000370: 8c0a 493c c65a a03c ff26 22bd 2c4c 21bd
00000380: f095 6abb f6cb edbc 1628 f9bc 7ddc 233d
00000390: 361d d6bc 71a4 293d 60ed febb 2d34 0b3d
000003a0: 18ae 913b a2a5 ed3c 7086 e3bc 4cce 14bc
000003b0: e0b7 903a 18fc c6bb bfa4 223d 21ea 203d
000003c0: 40f5 b3bb b8af a43b b89e f7bc c9a2 283d
000003d0: 96f4 843c 6a09 e43c 6890 1fbd 3e52 ea3c
000003e0: 81d1 133d bda7 0f3d dcf4 28bd 1875 dabc
000003f0: 3442 3c3c bfab 02bd bcab 453c e01b 5cbc
0.031762373 0.029697958 -0.029531613 0.02497683 0.023895595 0.018638592 0.009036854 0.0068674944
-0.02863217 -0.020602968 0.029999394 -0.014227416 -0.010049012 -0.033058625 0.003142666 -0.011145061
-0.03718034 -0.009877715 -0.008871157 -0.00034496188 -0.008319903 0.025711495 0.04069333 -0.028795695
-0.028154772 0.02562495 -0.021928146 0.009056304 -0.03629922 -0.03352615 -0.0402394 0.003980737
-0.011172971 0.007974435 -0.006898135 0.015763756 0.001453206 -0.002001468 0.021143947 -0.0023795776
-0.00090654567 0.02230898 0.005225852 -0.012951329 0.01837929 0.023464438 -0.037625745 0.02886064
0.01917608 0.040497866 0.025461692 -0.003827136 0.029247794 -0.011488935 -0.034853637 0.03039318
-0.041260295 -0.008331563 0.019900605 -0.029022425 0.02746481 0.03892533 0.039309125 -0.038175948
0.029955681 -0.020731714 -0.009515654 0.04016907 -0.030804923 0.020599913 0.012998585 -0.017324131
-0.002161011 0.013755832 -0.029734945 0.009283941 0.03071608 -0.023646906 0.035226453 -0.0030471273
0.006629139 0.0014318079 0.025916953 0.028403718 -0.010815963 0.0035024434 -0.00024871156 0.026055407
-0.010800486 -0.037502237 -0.0055119246 -0.033055402 0.023921888 -0.029951667 0.014000703 -0.02095229
-0.008407414 -0.03269857 -0.02330657 -0.032524243 0.029139746 0.006111011 -0.023217216 0.029224727
0.0022459775 0.028920863 -0.021505928 -0.0024180375 0.0032017268 -0.035947334 -0.019450318 -0.026329657
0.022158679 -0.003276702 0.0024240017 0.018729422 -0.023273211 0.04153982 -0.00966258 -0.010060471
0.026539046 0.00011209026 0.0055982918 -0.00011061132 -0.001756195 0.0013820231 0.039175723 0.019541185
0.013715874 -0.0048840493 0.008634668 0.0056112595 0.0165882 0.03339379 -0.012987148 0.033055644
-0.02406313 0.040570248 -0.018858438 0.0048412867 0.007939938 0.036433253 0.028104912 0.017643098
0.017271236 -0.017997604 0.013671596 -0.009933069 0.017480243 -0.0038675815 0.026104074 0.018340822
-0.021499943 -0.014689928 0.011563662 -0.02500631 -0.027482515 0.011449847 0.030734856 -0.024291432
-0.00801212 -0.013599893 0.037543673 0.017664533 -0.039758187 -0.04022422 0.032868695 0.025691602
-0.023723513 -0.032912076 -0.015424818 -0.02671799 0.037048873 -0.03489037 0.024101797 0.006624248
-0.003094852 -0.0073521137 0.008687306 -0.039584383 -0.013818538 -0.007482622 0.030523527 0.02937353
-0.033689156 0.01654305 -0.019728428 -0.022857195 0.02789053 0.026886988 -0.030725937 0.03456669
0.01658237 -0.030534655 -0.013412546 0.0035135336 -0.041621454 -0.017668426 -0.00032876804 -0.020941641
0.0108715445 0.039715726 -0.013829693 0.03158601 0.037943546 -0.030051466 0.01581863 0.01710707
0.022687797 0.010611579 0.0072404705 0.00140962 0.033200096 0.035867054 0.005451057 0.018505555
2.2154301e-05 -0.010606021 -0.04151202 -0.04119563 0.012270581 0.019574534 -0.03958797 -0.039379284
-0.0035794936 -0.02902792 -0.030414622 0.040005196 -0.026136976 0.04141659 -0.007779762 0.033985306
0.0044458024 0.029009644 -0.027774066 -0.009082388 0.0011041127 -0.0060725324 0.039707895 0.039285783
-0.0054918826 0.00502583 -0.03022705 0.04117087 0.016229909 0.02783652 -0.038956076 0.02860367
0.03608847 0.035072077 -0.04124914 -0.026667163 0.011490393 -0.03190207 0.01206487 -0.01343438

encoder.3.norm.weight f4 [64]
00000000: 0000 803f 0000 803f 0000 803f 0000 803f
00000010: 0000 803f 0000 803f 0000 803f 0000 803f
00000020: 0000 803f 0000 803f 0000 803f 0000 803f
00000030: 0000 803f 0000 803f 0000 803f 0000 803f
00000040: 0000 803f 0000 803f 0000 803f 0000 803f
00000050: 0000 803f 0000 803f 0000 803f 0000 803f
00000060: 0000 803f 0000 803f 0000 803f 0000 803f
00000070: 0000 803f 0000 803f 0000 803f 0000 803f
00000080: 0000 803f 0000 803f 0000 803f 0000 803f
00000090: 0000 803f 0000 803f 0000 803f 0000 803f
000000a0: 0000 803f 0000 803f 0000 803f 0000 803f
000000b0: 0000 803f 0000 803f 0000 803f 0000 803f
000000c0: 0000 803f 0000 803f 0000 803f 0000 803f
000000d0: 0000 803f 0000 803f 0000 803f 0000 803f
000000e0: 0000 803f 0000 803f 0000 803f 0000 803f
000000f0: 0000 803f 0000 803f 0000 803f 0000 803f
1.0 1.0 1.0 1.0 1.0 1.0 1.0 1.0
1.0 1.0 1.0 1.0 1.0 1.0 1.0 1.0
1.0 1.0 1.0 1.0 1.0 1.0 1.0 1.0
1.0 1.0 1.0 1.0 1.0 1.0 1.0 1.0
1.0 1.0 1.0 1.0 1.0 1.0 1.0 1.0
1.0 1.0 1.0 1.0 1.0 1.0 1.0 1.0
1.0 1.0 1.0 1.0 1.0 1.0 1.0 1.0
1.0 1.0 1.0 1.0 1.0 1.0 1.0 1.0

encoder.3.norm.bias f4 [64]
00000000: 0000 0000 0000 0000 0000 0000 0000 0000
00000010: 0000 0000 0000 0000 0000 0000 0000 0000
00000020: 0000 0000 0000 0000 0000 0000 0000 0000
00000030: 0000 0000 0000 0000 0000 0000 0000 0000
00000040: 0000 0000 0000 0000 0000 0000 0000 0000
00000050: 0000 0000 0000 0000 0000 0000 0000 0000
00000060: 0000 0000 0000 0000 0000 0000 0000 0000
00000070: 0000 0000 0000 0000 0000 0000 0000 0000
00000080: 0000 0000 0000 0000 0000 0000 0000 0000
00000090: 0000 0000 0000 0000 0000 0000 0000 0000
000000a0: 0000 0000 0000 0000 0000 0000 0000 0000
000000b0: 0000 0000 0000 0000 0000 0000 0000 0000
000000c0: 0000 0000 0000 0000 0000 0000 0000 0000
000000d0: 0000 0000 0000 0000 0000 0000 0000 0000
000000e0: 0000 0000 0000 0000 0000 0000 0000 0000
000000f0: 0000 0000 0000 0000 0000 0000 0000 0000
0.0 0.0 0.0 0.0 0.0 0.0 0.0 0.0
0.0 0.0 0.0 0.0 0.0 0.0 0.0 0.0
0.0 0.0 0.0 0.0 0.0 0.0 0.0 0.0
0.0 0.0 0.0 0.0 0.0 0.0 0.0 0.0
0.0 0.0 0.0 0.0 0.0 0.0 0.0 0.0
0.0 0.0 0.0 0.0 0.0 0.0 0.0 0.0
0.0 0.0 0.0 0.0 0.0 0.0 0.0 0.0
0.0 0.0 0.0 0.0 0.0 0.0 0.0 0.0

conv_net.0.conv.weight f4 [64, 128, 3, 3]
00000000: 10ed 61bc 0efb 0c3c dcfc e63b e817 38bb
00000010: f479 9e3b 7290 05bc 939e adbc 3dd5 c4bc
00000020: 68ce 6d3b 8045 99bc 9b27 d83c feb3 80bc
00000030: 5028 8f3a fec0 a8bc 0e5a 05bc 34d9 31bc
00000040: f03b 53bb 2949 a13c e367 d83c 624d bbbc
00000050: d55e a13c d4da c7bc 9b2a a8bc cdc0 e73c
00000060: 04f1 b53b 9095 caba 496b 963c 8fbd e0bc
00000070: 7c1d cebb 04da ae3b 0c71 5fbc ea98 82bc
00000080: 4a52 3f3c 680e ecbc 86b0 303c 36f0 29bc
00000090: 5042 ddbb 21c5 99bc 4e4b 0bbc eda1 8e3c
000000a0: 0cdc 15bc b4ec 17bc 7c7e e03b f470 dcbb
000000b0: 5b38 a7bc aaa6 5a3c 809c 593a 5729 8d3c
000000c0: 38d6 12bb b299 75bc 0ff0 dd3c 00b4 173a
000000d0: 3040 a2bb 64f3 8dbb 68d3 85bc caa2 4cbc
000000e0: e96f bc3c 2ef3 1f3c ea55 6e3c a0c5 44bb
000000f0: 70bf 88ba 6710 bb3c bd8a bb3c b764 ae3c
00000100: d3f7 b93c 2ecd 18bc c05c baba 24fc b43b
00000110: 8447 3fbc 100c db3a 01e8 903c c795 a83c
00000120: c9ff 90bc c11e f13c 36c0 9bbc 00de 7139
00000130: ba48 2bbc 51ed ef3c 68f8 a0bc 938d a93c
00000140: 5c4d 2fbc dc8b 8abb b7d6 83bc 7724 9b3c
00000150: c275 54bc ac46 ccbb a494 9dbb 33cb c13c
00000160: 8017 58ba 2615 5cbc 6807 aebb 887a 94bc
00000170: ca56 7e3c 105c d7ba 0f70 e03c 1b30 e6bc
00000180: bc82 90bc 2378 9abc 1c38 89bc ee6b 023c
00000190: 76ab 8bbc 1822 fdbb 85f6 8c3c da00 453c
000001a0: f296 613c ecda dbbc c0d1 d33a 5437 853b
000001b0: 1c66 fd3b 01e3 d63c b099 963a ea05 6e3c
000001c0: 55e3 d7bc f855 18bc f4c1 ac3b 747a b23b
000001d0: 3edc b6bc 2666 773c 6a56 50bc 5ea4 8dbc
000001e0: 32cd 1abc 28b4 3c3b b9c0 803c 9faf e5bc
000001f0: 2176 b53c bdca 9c3c 420c 113c 44e5 cdbc
00000200: a1b6 b63c d374 b23c 29d4 e33c 05d8 973c
00000210: caa5 363c ff18 9e3c d620 91bc 8215 4c3c
00000220: d491 d93b 7bd6 d83c aac4 613c d825 f0bb
00000230: e888 98bb a219 e9bc 90a7 dbbc 2931 993c
00000240: 685d 9dbc b04e 05bb dbb4 dd3c f920 db3c
00000250: cd17 b83c b6b5 0bbc 8e43 83bc 7c0a 1dbc
00000260: 005f d6ba e23f 0d3c 3c9c dabb c282 583c
00000270: 52f5 723c aa30 0ebc 5a35 7d3c d202 083c
00000280: ca6e 333c 6e7b 363c e061 49bc 0571 dc3c
00000290: fe1b 753c 54f9 d63b c068 aeba bc03 f8bb
000002a0: 0c28 cdbc 4bbd 9f3c 47a1 8f3c 4f74 833c
000002b0: 7d66 ad3c 4870 d3bc 4005 943a 5ee6 d0bc
000002c0: 5a80 783c 4646 1a3c 444f acbc 17bf e6bc
000002d0: 58ea dabb 9cf6 ef3b dc5d 13bc 9282 4f3c
000002e0: 2bf7 cfbc d865 3b3b c6fb 633c 079c d8bc
000002f0: cb76 873c b671 5a3c 6dd3 e2bc 8067 e6b9
00000300: 5692 88bc 040d 9a3b a298 6c3c 4d29 923c
00000310: 289f 19bb 5604 2fbc 3cb3 eebc fefb e0bc
00000320: c0ba 663a c3bd ee3c 8448 eebb 5518 cfbc
00000330: f5a1 983c 1164 f03c e16f 70bc 9c7d c7bb
00000340: 265c 193c 02b0 9fbc 000e 1bbc 1534 d93c
00000350: d2b1 753c 4139 e23c e527 ef3c 8458 8d3b
00000360: d8aa 6fbc a8f8 30bc dc48 cdbb 36bf 313c
00000370: 13ad a8bc 2a9b 51bc b4bf d93b 40be aabb
00000380: ce56 7d3c 42ee b4bc 9cd0 d73b 715d d73c
00000390: 6ccb 4dbc 6096 95bb 30b7 20bb 48f4 033b
000003a0: 03bd e23c 2088 ab3a 80a6 aabb 9073 d8bb
000003b0: b61f bcbc 57db d23c d2b8 6a3c df4b 91bc
000003c0: a094 5bba 24a1 d53b 0fc6 8f3c 82a0 603c
000003d0: ca4e 2abc 789c 403b f4ce a2bc 1287 9bbc
000003e0: e309 a23c 3a6b aabc 7810 433b 401c 32bc
000003f0: 3697 703c 1a93 69bc 10e6 5fbc 97c2 e4bc
-0.01378943 0.008604778 0.007049186 -0.002809042 0.0048363153 -0.008152114 -0.021193778 -0.024027461
0.0036286358 -0.018709898 0.026386073 -0.015710827 0.0010922048 -0.020599838 -0.0081391465 -0.010855008
-0.003223177 0.019688206 0.026416725 -0.022864047 0.01969854 -0.024396338 -0.020528128 0.028290177
0.005552413 -0.001545595 0.018361704 -0.027434139 -0.006290136 0.005336048 -0.013637792 -0.015942056
0.011677334 -0.028815463 0.010784274 -0.010372212 -0.00675229 -0.018770756 -0.008501841 0.017411197
-0.009146702 -0.009272743 0.0068510156 -0.0067273322 -0.020412615 0.0133454 0.00083012134 0.017231626
-0.0022405516 -0.014990257 0.027092008 0.0005787015 -0.0049514994 -0.004331993 -0.016336158 -0.012489984
0.023002582 0.009762568 0.014546851 -0.003002502 -0.0010433029 0.02283497 0.022893304 0.021288259
0.02270118 -0.009326262 -0.0014218315 0.0055232216 -0.0116747655 0.0016711969 0.017688753 0.020579232
-0.017700093 0.02943361 -0.019012552 0.00023066252 -0.010454351 0.029287966 -0.0196497 0.02069739
-0.010699596 -0.0042280983 -0.016093595 0.018938286 -0.012967529 -0.0062340107 -0.004808979 0.023656463
-0.0008243248 -0.013432777 -0.0053109415 -0.018124834 0.015523622 -0.0016430635 0.027397184 -0.02809911
-0.017640464 -0.018856114 -0.016750388 0.007960303 -0.017049532 -0.0077250116 0.017207393 0.012024129
0.013768898 -0.026837789 0.0016160533 0.0040654335 0.0077331197 0.02623129 0.0011489894 0.014527777
-0.026353518 -0.00929784 0.0052721445 0.0054467265 -0.022321817 0.015100038 -0.012715915 -0.01729029
-0.009448336 0.0028793905 0.015716897 -0.028037844 0.022151055 0.019139642 0.00885302 -0.025133736
0.022303881 0.021784222 0.027811127 0.018535623 0.011147926 0.019299028 -0.017715853 0.0124563
0.0066396985 0.02646946 0.0137797985 -0.00732873 -0.0046549924 -0.028454605 -0.026813298 0.0187002
-0.019209579 -0.002034109 0.027063778 0.026749121 0.022472287 -0.00852721 -0.016023424 -0.009585019
-0.0016355217 0.008621188 -0.0066714566 0.013214769 0.014828997 -0.008678595 0.015454615 0.008301454
0.010951707 0.011137826 -0.012291402 0.02690936 0.014960287 0.006560484 -0.0013306364 -0.0075688045
-0.02504351 0.019499442 0.017532958 0.016046671 0.021167034 -0.025810376 0.0011293069 -0.025500473
0.01516732 0.009416169 -0.02103389 -0.02816729 -0.006680768 0.0073230993 -0.008994546 0.012665408
-0.025386414 0.002859464 0.013915008 -0.026441587 0.016536137 0.013332775 -0.027688706 -0.00043946132
-0.01667134 0.0047012586 0.014440687 0.01784196 -0.0023440812 -0.010682186 -0.0291382 -0.02746391
0.00088016316 0.02914322 -0.007271828 -0.025280157 0.018631915 0.02934459 -0.0146751115 -0.006087972
0.009360349 -0.019493107 -0.009463787 0.026514092 0.014996009 0.027615191 0.029193828 0.0043135304
-0.014628135 -0.010801472 -0.006264789 0.010848811 -0.02059034 -0.012793342 0.0066451672 -0.005210668
0.01546259 -0.022086266 0.0065861475 0.026289674 -0.012560707 -0.0045650452 -0.002452325 0.0020134617
0.027678018 0.0013086833 -0.0052078366 -0.006605573 -0.02296434 0.025739355 0.014326291 -0.017736373
-0.0008376334 0.0065194536 0.017550496 0.013710143 -0.010394761 0.0029390138 -0.019874074 -0.018985305
0.019780105 -0.020803083 0.0029764455 -0.010870993 0.014684489 -0.014256263 -0.013665691 -0.027924819

conv_net.0.norm.weight f4 [64]
00000000: 0000 803f 0000 803f 0000 803f 0000 803f
00000010: 0000 803f 0000 803f 0000 803f 0000 803f
00000020: 0000 803f 0000 803f 0000 803f 0000 803f
00000030: 0000 803f 0000 803f 0000 803f 0000 803f
00000040: 0000 803f 0000 803f 0000 803f 0000 803f
00000050: 0000 803f 0000 803f 0000 803f 0000 803f
00000060: 0000 803f 0000 803f 0000 803f 0000 803f
00000070: 0000 803f 0000 803f 0000 803f 0000 803f
00000080: 0000 803f 0000 803f 0000 803f 0000 803f
00000090: 0000 803f 0000 803f 0000 803f 0000 803f
000000a0: 0000 803f 0000 803f 0000 803f 0000 803f
000000b0: 0000 803f 0000 803f 0000 803f 0000 803f
000000c0: 0000 803f 0000 803f 0000 803f 0000 803f
000000d0: 0000 803f 0000 803f 0000 803f 0000 803f
000000e0: 0000 803f 0000 803f 0000 803f 0000 803f
000000f0: 0000 803f 0000 803f 0000 803f 0000 803f
1.0 1.0 1.0 1.0 1.0 1.0 1.0 1.0
1.0 1.0 1.0 1.0 1.0 1.0 1.0 1.0
1.0 1.0 1.0 1.0 1.0 1.0 1.0 1.0
1.0 1.0 1.0 1.0 1.0 1.0 1.0 1.0
1.0 1.0 1.0 1.0 1.0 1.0 1.0 1.0
1.0 1.0 1.0 1.0 1.0 1.0 1.0 1.0
1.0 1.0 1.0 1.0 1.0 1.0 1.0 1.0
1.0 1.0 1.0 1.0 1.0 1.0 1.0 1.0

conv_net.0.norm.bias f4 [64]
00000000: 0000 0000 0000 0000 0000 0000 0000 0000
00000010: 0000 0000 0000 0000 0000 0000 0000 0000
00000020: 0000 0000 0000 0000 0000 0000 0000 0000
00000030: 0000 0000 0000 0000 0000 0000 0000 0000
00000040: 0000 0000 0000 0000 0000 0000 0000 0000
00000050: 0000 0000 0000 0000 0000 0000 0000 0000
00000060: 0000 0000 0000 0000 0000 0000 0000 0000
00000070: 0000 0000 0000 0000 0000 0000 0000 0000
00000080: 0000 0000 0000 0000 0000 0000 0000 0000
00000090: 0000 0000 0000 0000 0000 0000 0000 0000
000000a0: 0000 0000 0000 0000 0000 0000 0000 0000
000000b0: 0000 0000 0000 0000 0000 0000 0000 0000
000000c0: 0000 0000 0000 0000 0000 0000 0000 0000
000000d0: 0000 0000 0000 0000 0000 0000 0000 0000
000000e0: 0000 0000 0000 0000 0000 0000 0000 0000
000000f0: 0000 0000 0000 0000 0000 0000 0000 0000
0.0 0.0 0.0 0.0 0.0 0.0 0.0 0.0
0.0 0.0 0.0 0.0 0.0 0.0 0.0 0.0
0.0 0.0 0.0 0.0 0.0 0.0 0.0 0.0
0.0 0.0 0.0 0.0 0.0 0.0 0.0 0.0
0.0 0.0 0.0 0.0 0.0 0.0 0.0 0.0
0.0 0.0 0.0 0.0 0.0 0.0 0.0 0.0
0.0 0.0 0.0 0.0 0.0 0.0 0.0 0.0
0.0 0.0 0.0 0.0 0.0 0.0 0.0 0.0

conv_net.1.conv.weight f4 [64, 64, 3, 3]
00000000: 7bcc 163d f0e3 943c da95 e73c cb96 b5bc
00000010: 80ad 03bc 9430 193c b234 ef3c 6a0e f43c
00000020: ed48 153d 80a0 5abb d46f 033c 804c adb9
00000030: 0089 0f3a 4dd0 073d aa35 a33c df41 283d
00000040: f005 2d3b 0c21 183c ab98 00bd 084e aa3c
00000050: dbf7 02bd 06a3 ec3c 94f0 10bd bacb b53c
00000060: a6a6 e33c da3f b13c 1c0b 17bd 9d91 083d
00000070: 6a9b 19bd 5e6c 9a3c 688e 833c ae8e f4bc
00000080: 6d23 073d 9523 1a3d a578 103d 1b34 043d
00000090: 40a7 6d3a 7653 81bc f2eb ba3c b093 39bc
000000a0: f3e9 8dbc be71 bfbc 0050 fabc 7e34 acbc
000000b0: 0e60 c6bc e0c4 2e3c aa92 de3c c06b 9d3b
000000c0: 6dbb 283d a6c5 c2bc dc41 683c b866 ccbc
000000d0: efd6 133d b4bb 20bc b1d3 053d aeff 24bd
000000e0: c0e0 5eba 006a ffb9 8075 c4bb c0fe 28bd
000000f0: 9c47 1f3c 8020 c4bc b80f fd3b 0cdc 5d3c
00000100: 90ed d7bc 1039 55bb 573b 243d 3120 133d
00000110: f1e0 0b3d 16d2 eb3c 7474 3f3c 5648 c1bc
00000120: 7a8a ad3c ba65 c53c 0680 44bc 9865 cebb
00000130: fec3 e23c 4071 e23b 26b5 b2bc 1a93 c93c
00000140: 80c6 4ebb 66e9 bcbc 5e4f df3c 60b8 76bc
00000150: 2da8 0c3d a13c 0f3d 3852 833b bedc c0bc
00000160: 7afd a73c d8eb 813b 20ab 3fbc 7355 8cbc
00000170: a84d f4bb 7efd d7bc 78fa f3bb e05c c73a
00000180: 404c abbc f049 cdbc 46c0 fe3c 6b18 8bbc
00000190: 56d1 c93c b024 52bb 200f a3bb 1800 e3bb
000001a0: e2f6 9a3c e209 c33c f29b e83c 50e1 33bc
000001b0: 9e48 b7bc 8041 e2bc 2547 163d 56d0 24bd
000001c0: 70a7 b8bc 2ae2 bd3c 9804 a13b 8229 18bd
000001d0: 72ce 0bbd b615 833c 48a2 a5bc 089a 993c
000001e0: fbb7 0dbd a060 b7bb be2a dfbc 7092 e8bc
000001f0: 900e 613c 600c b93b 8078 80bc 2a92 25bd
00000200: 8c34 0fbd 3ec6 dfbc a0e0 bdbb 0094 103b
00000210: 1028 12bd e087 843a d78f 193d 0845 ab3b
00000220: 0014 b8b9 70a5 173c 1cba 603c b08c a43c
00000230: 3388 ccbc bfee 143d 0bb1 dcbc 30c4 763c
00000240: 42cb be3c c020 4dbc 0660 12bd 2eec 0abd
00000250: c0ba e43b cee0 1bbd 1ad2 01bd c415 793c
00000260: f474 7d3c ab2c b5bc d899 13bd a022 bdbc
00000270: 9acf 9e3c a0c1 f8ba 4882 f5bc 2311 91bc
00000280: 001b 1cbd 728a e03c 707c a3bc 16f8 3cbc
00000290: a95d 023d 4e9b adbc dafb 19bd c8b2 803b
000002a0: 66bb 26bd 4671 8ebc 40c1 52ba 63ac 82bc
000002b0: c0df 973c 7843 b3bc 6cfd 0ebc 2966 0d3d
000002c0: a860 d13b 7877 bdbb 9834 c1bb f07b b1bc
000002d0: f74d 113d f82a 90bb db76 cabc 3a70 a13c
000002e0: fe59 e3bc 8c42 6c3c f13e 093d 4d21 133d
000002f0: 78d8 df3b f869 f63b 72c0 d53c 3b21 f8bc
00000300: 3069 08bd a61b 97bc a2e8 d03c 4a8c e53c
00000310: a0ed f7bb 8291 19bd a37c 1dbd 5001 863c
00000320: 54d0 2d3c 5c71 263c 1e79 c8bc 63de f1bc
00000330: 004d 943b 0118 163d 0e0f a8bc 7833 dd3b
00000340: f691 9f3c cc0b 60bc 7004 13bd 36b0 fb3c
00000350: 6d86 1d3d c328 bcbc 482f 913c 0617 edbc
00000360: 53bc 06bd 0a87 dd3c 166f cb3c c25f 8a3c
00000370: 8a22 f63c d04f c1bc 837f 9fbc 6631 fb3c
00000380: 7d50 183d 1813 9f3b 9e90 16bd 8068 84bc
00000390: 40a9 273c ae89 9ebc 9964 263d 6445 6b3c
000003a0: 183e a4bc f37b dfbc 51ce 053d a01d 6bbc
000003b0: b303 e4bc e882 d4bb 1e09 11bd 2c22 783c
000003c0: 167c 68bc a59e 063d e7cb 1c3d 80cf a439
000003d0: ee45 fe3c 76c1 37bc bb7f 233d 00b0 04bb
000003e0: 907e 0d3c cbfc f1bc b952 153d 6067 d4bb
000003f0: 76b6 913c 1695 03bd ca17 15bd 0024 b83a
0.0368161 0.018175095 0.028269697 -0.02216663 -0.008036971 0.009349961 0.029199932 0.02979203
0.0364465 -0.0033359826 0.008022267 -0.00033054128 0.00054754317 0.033157635 0.01992305 0.041078445
0.0026401244 0.009285223 -0.031395596 0.020789161 -0.031974655 0.02888633 -0.035385683 0.022191871
0.027789425 0.021636892 -0.03687583 0.033341993 -0.03750173 0.018850502 0.016059116 -0.029853191
0.03299277 0.03763159 0.035271306 0.032276254 0.0009065755 -0.015786868 0.022817586 -0.011326715
-0.01732347 -0.023369666 -0.030555725 -0.021021124 -0.024215724 0.010667056 0.027169544 0.0048041046
0.04119437 -0.023775887 0.014175858 -0.024951324 0.03609365 -0.009810377 0.032672588 -0.040282898
-0.0008502118 -0.00048716366 -0.0059954524 -0.041258574 0.009721663 -0.023941278 0.007722821 0.013541233
-0.026358396 -0.0032535233 0.040095653 0.035919372 0.034150068 0.0287867 0.011685479 -0.023594063
0.021184195 0.024096359 -0.011993414 -0.006298732 0.027681347 0.006910473 -0.021814894 0.024606276
-0.003155142 -0.023060512 0.027259525 -0.015058607 0.034340072 0.03496993 0.004007604 -0.023542758
0.02050661 0.0039648823 -0.011698514 -0.01713059 -0.0074555464 -0.026365992 -0.0074456297 0.0015210174
-0.020910382 -0.02505967 0.031097542 -0.016979417 0.024635952 -0.0032065324 -0.0049761683 -0.0069275014
0.018916551 0.023808423 0.028394673 -0.010979012 -0.022373494 -0.027619123 0.036688942 -0.040237747
-0.022540778 0.023179132 0.0049138777 -0.03714896 -0.03413243 0.016001564 -0.020218983 0.018750206
-0.034599286 -0.0055962354 -0.02724206 -0.02839014 0.013736382 0.005647227 -0.015682459 -0.040422596
-0.034962222 -0.027316209 -0.0057945997 0.002206087 -0.035682738 0.0010111295 0.037490692 0.005226735
-0.00035110116 0.009255752 0.013716247 0.020086616 -0.024967289 0.0363605 -0.02693989 0.015061423
0.02329028 -0.012520015 -0.035736106 -0.033916645 0.00698027 -0.038056187 -0.03169451 0.015202943
0.015469778 -0.022116026 -0.03603539 -0.0230878 0.019386102 -0.0018978603 -0.02996935 -0.017708367
-0.038111687 0.027409766 -0.019956797 -0.011533758 0.031827603 -0.02119222 -0.0375937 0.0039275624
-0.04070606 -0.017387997 -0.0008039661 -0.015951341 0.01853931 -0.021882758 -0.008727413 0.034521256
0.006389696 -0.005782064 -0.0058961622 -0.021665543 0.035474744 -0.0043996535 -0.024714878 0.019706834
-0.027752873 0.014420163 0.03350729 0.03592043 0.006831225 0.0075199567 0.026092742 -0.030289283
-0.03330344 -0.018445801 0.025501553 0.028020997 -0.007566169 -0.037492283 -0.03844894 0.016358048
0.010608751 0.010158863 -0.024471816 -0.029524988 0.0045257807 0.036643986 -0.020514991 0.0067505203
0.01947878 -0.013674688 -0.035892904 0.030723672 0.038458277 -0.022968655 0.01772274 -0.028941642
-0.032894444 0.02704193 0.024833243 0.016891364 0.030045766 -0.023597628 -0.019469982 0.030663203
0.037186135 0.004854571 -0.03675901 -0.01616311 0.010233223 -0.01935276 0.04062328 0.014359806
-0.02004914 -0.027280783 0.03266746 -0.014350325 -0.027833795 -0.006485332 -0.035409085 0.015144866
-0.014189741 0.03286614 0.038280394 0.00031435117 0.031039204 -0.011215558 0.039916735 -0.0020246506
0.008636132 -0.029539486 0.036455844 -0.00648205 0.0177872 -0.0321246 -0.03639964 0.0014048815

conv_net.1.norm.weight f4 [64]
00000000: 0000 803f 0000 803f 0000 803f 0000 803f
00000010: 0000 803f 0000 803f 0000 803f 0000 803f
00000020: 0000 803f 0000 803f 0000 803f 0000 803f
00000030: 0000 803f 0000 803f 0000 803f 0000 803f
00000040: 0000 803f 0000 803f 0000 803f 0000 803f
00000050: 0000 803f 0000 803f 0000 803f 0000 803f
00000060: 0000 803f 0000 803f 0000 803f 0000 803f
00000070: 0000 803f 0000 803f 0000 803f 0000 803f
00000080: 0000 803f 0000 803f 0000 803f 0000 803f
00000090: 0000 803f 0000 803f 0000 803f 0000 803f
000000a0: 0000 803f 0000 803f 0000 803f 0000 803f
000000b0: 0000 803f 0000 803f 0000 803f 0000 803f
000000c0: 0000 803f 0000 803f 0000 803f 0000 803f
000000d0: 0000 803f 0000 803f 0000 803f 0000 803f
000000e0: 0000 803f 0000 803f 0000 803f 0000 803f
000000f0: 0000 803f 0000 803f 0000 803f 0000 803f
1.0 1.0 1.0 1.0 1.0 1.0 1.0 1.0
1.0 1.0 1.0 1.0 1.0 1.0 1.0 1.0
1.0 1.0 1.0 1.0 1.0 1.0 1.0 1.0
1.0 1.0 1.0 1.0 1.0 1.0 1.0 1.0
1.0 1.0 1.0 1.0 1.0 1.0 1.0 1.0
1.0 1.0 1.0 1.0 1.0 1.0 1.0 1.0
1.0 1.0 1.0 1.0 1.0 1.0 1.0 1.0
1.0 1.0 1.0 1.0 1.0 1.0 1.0 1.0
