models/best_relation_module.pth (torch, 459582 bytes, 15 tensors)

layer1.0.weight f4 [64, 128, 3, 3]
00000000: b1d0 383d 83a5 193c bd58 083d 440a e33d
00000010: 29f9 ca3d a77e 603d 9c5a f8bc 77c2 2b3d
00000020: e575 84bd 2776 733d 6865 1cbc 2595 a6bb
00000030: de12 f539 f97c 64bd a87b d93d b4d8 d93d
00000040: 7209 963d b1fc 813d 2c78 a5bc eb6f 4b3c
00000050: 6462 b8bd 87ae d93a 16f8 7f3d e760 0c3d
00000060: 6dac 1e3d 6ea7 b1bd 51e9 803d 9f42 853d
00000070: 56a8 493c 93db 1cbd 7f6e 75bd 8125 43bd
00000080: abb1 213d cd2b fabd de05 dabd c99c 0a3d
00000090: ed83 93bd bb2f 82bb 7700 933c d725 bc3d
000000a0: d1a6 08bd 3fcd 7dbc 1dc2 dc3a d40f 07bd
000000b0: 13a5 673c a83e 6cbc 4c63 bfbc c365 60bd
000000c0: 282b b6bc 001b 19bc b258 e03d 3fdd b53d
000000d0: 58d9 d4bc bfc0 53bd f512 6dbd 2b53 153d
000000e0: 4e04 433c b9b9 323d c159 09be 5480 eb3d
000000f0: 6f66 9dbd c19e 6abd 6288 d23d 2059 11bc
00000100: 45a6 ef3d c6b5 033d 8683 7b3d 9d5a 30bc
00000110: f64f 4c3d 0429 883d 6c9f ab3a 8d06 e23c
00000120: e356 363c 02bd b4bd 1cda 51bd 340f 5a3c
00000130: 0e70 103d 446d e3bc 7faa c1bc 264a 9a3d
00000140: e49b 84bd e108 5abd 9c38 bcbc 08a0 02bd
00000150: 035a 9bbd e8e9 b23d 205b fabb ac43 ec3c
00000160: 2087 27bd 262a 483b 1e8d f1bd 8491 733d
00000170: 3860 943c cca0 203d 51de 61bd 512a 263d
00000180: df7e 5e3c 0ff7 c9bd 5796 383c da7f 693d
00000190: 05fe f0bc 413b 523d 4c43 1a3d 10fc 763d
000001a0: b0ac 4a3c a5c4 a23c 4401 143d cb59 d63d
000001b0: 6e30 1bbd aebc 273d 333e 31bc 3c0e aa3d
000001c0: d283 08bd 5752 20bc a7e0 bbbd 62d9 18bc
000001d0: c67a 4e3d d68e 7c3d 899b bfbc 952b 9fbc
000001e0: 648c 9e3c 2b90 96bd b9c1 0a3d 370c 913c
000001f0: b4cc 17bd cf19 85bd 1481 34bc cc73 0a3d
00000200: 7c2d 8d3c 934d dabc 6174 07bd 41b7 2dbb
00000210: ceab e63c 06f4 ebbd 3830 803d e9d1 903d
00000220: fc36 123c 5e4f fd3c 7c75 45bd 23f7 00bd
00000230: e934 323d 8cf6 67ba e2b3 b3bd f21d 85bc
00000240: 6ab5 7d3c 3dcd 853d 0900 5bbd 67ff 9736
00000250: d16d d1bc 942d 63bd 1cf1 bfbd a35f 3d3d
00000260: c83f 46bd 3cb5 1c3d 70c0 833a f8f1 153d
00000270: b07d f3bd 42d7 c3bb 473b 17bd e173 61bd
00000280: 4580 523d 647a 60ba 547c cabc 6c99 d2bc
00000290: c098 213d aa1d 413c d8f0 84bc 5e6c f5bc
000002a0: 0790 be3b 22a0 c0bc 0d9e 15be a494 0d3d
000002b0: 81b0 273c ba4b 6f3c de96 16bd 6dc8 b6bc
000002c0: 6e0d 003d 4f46 3abd 2ad0 67bc f568 e23d
000002d0: 229f 9dbd 8214 1bbd c81b ef3a 0710 4dbd
000002e0: 0578 fdbc dabb a039 4f4f 033c 09a9 4cbc
000002f0: 63b8 903d 8e26 1e3d 89c9 e5ba aca7 31bc
00000300: 47a0 cb3c 1954 e43c de79 873d 153b 843c
00000310: 8318 3bbd acf3 a7bd dc22 7cbb 4179 0b3d
00000320: 7a14 083b 25c1 14bd fc47 d53d c9c5 693d
00000330: 69c2 86bd eacb 42bd 59c3 033d c7ae 0fbd
00000340: 2cdf dfbd 102f 553c 19e4 cfbb 1b96 ea3c
00000350: 5b4e 98bc f10e 11bd a5d1 8cbd c4d8 8ebd
00000360: c467 193c f566 dbbb 5280 f03b 5361 033e
00000370: 1811 efbc 5a5b b7bc 801b bdbd dcc3 ca3a
00000380: 5aef 3cbd 6cef d2bd f820 16bd f1de d6bc
00000390: e4e9 16bd 3c75 bfbd 3bb4 9ebc 4280 a1bc
000003a0: e963 073d ee2f 2bbd 7402 d2bc daae 60bc
000003b0: 5ac4 1c3d 4f5d afbc acce 233c 9af6 683d
000003c0: fc3e f83c 3865 25bc 1ee9 233d 0c5e 01bd
000003d0: 399f 1bbc 7c2a ccba 681c 9f3d bb3d 9bbd
000003e0: 53cb a1bc b4f2 343d 793d 6d3c d9b6 d5bd
000003f0: 9777 a13c 4639 c73d 8f00 65bd 70d0 07bd
0.0451209 0.00937784 0.033287752 0.110859424 0.09910805 0.054808285 -0.030316643 0.041933503
-0.06467799 0.05943885 -0.0095456615 -0.0050836974 0.000467441 -0.055783246 0.10619289 0.10637036
0.0732602 0.06347025 -0.020198904 0.01241682 -0.090031415 0.0016607799 0.062492453 0.0342721
0.038738657 -0.08674513 0.062945016 0.065068476 0.012308201 -0.03829534 -0.05991983 -0.04764319
0.039476078 -0.122153856 -0.1064565 0.03384093 -0.07202897 -0.003972975 0.017944558 0.09186905
-0.033362214 -0.015490829 0.0016842518 -0.03297408 0.014138478 -0.014419235 -0.023362778 -0.054784548
-0.022237375 -0.009344816 0.10954417 0.0888009 -0.025982544 -0.05169749 -0.057879407 0.03645627
0.011902882 0.04363415 -0.13413145 0.11499086 -0.07685553 -0.057280306 0.10279919 -0.008871347
0.11701635 0.032155775 0.061404727 -0.010763791 0.049880944 0.06648448 0.0013093776 0.027591014
0.011129114 -0.08825113 -0.051233396 0.013309289 0.035263114 -0.027762063 -0.02364087 0.07533674
-0.06475046 -0.053231124 -0.022976212 -0.0318909 -0.07585528 0.0873602 -0.0076402575 0.028840862
-0.04090035 0.00305427 -0.11794494 0.059464946 0.018112287 0.039215848 -0.055143658 0.0405677
0.013580053 -0.09861576 0.011266313 0.057006694 -0.029418001 0.05132604 0.037661836 0.06029898
0.0123702735 0.019869158 0.03613402 0.104663454 -0.037887983 0.040951423 -0.010818052 0.08303496
-0.03332884 -0.009785256 -0.091737084 -0.009329172 0.050410055 0.061659656 -0.023389595 -0.019429961
0.019354053 -0.073517166 0.033876155 0.01770602 -0.037060454 -0.06499063 -0.011017103 0.03380184
0.017233603 -0.026648318 -0.033069972 -0.0026506933 0.028158095 -0.11521153 0.06259197 0.07071287
0.008924242 0.030921634 -0.048207745 -0.031485688 0.04350749 -0.0008848689 -0.08774544 -0.01624963
0.015485147 0.06533287 -0.05346683 4.5298834e-06 -0.02556506 -0.05546339 -0.0937216 0.046233784
-0.04840067 0.038258776 0.0010051858 0.036607713 -0.11889207 -0.0059765885 -0.036921766 -0.05504215
0.05139186 -0.00085631595 -0.024717487 -0.025707923 0.039452314 0.011786858 -0.016228124 -0.0299589
0.0058155092 -0.023513857 -0.14611073 0.034565583 0.010234953 0.014605457 -0.036764972 -0.022312367
0.031262808 -0.045477208 -0.014148751 0.11055175 -0.07696368 -0.037861355 0.0018242532 -0.050064113
-0.030941019 0.00030657538 0.008014514 -0.012491473 0.07066419 0.038610987 -0.0017531376 -0.010843199
0.0248567 0.027872132 0.06615041 0.016141454 -0.045677673 -0.082007736 -0.0038472926 0.034051184
0.0020764158 -0.03631701 0.104141206 0.05707339 -0.065800495 -0.04755775 0.03216872 -0.03507879
-0.109312385 0.013011709 -0.00634433 0.028636029 -0.01859205 -0.03541464 -0.06875924 -0.069749385
0.009363119 -0.006695623 0.0073395157 0.12830095 -0.029182956 -0.022382427 -0.09233761 0.0015469748
-0.0461267 -0.10299572 -0.036652535 -0.026229354 -0.03684415 -0.093485326 -0.01937305 -0.019714478
0.033054266 -0.041793756 -0.025635935 -0.013713563 0.038273193 -0.021406798 0.009998005 0.056875803
0.03030347 -0.010094933 0.04001724 -0.03158383 -0.009498411 -0.0015576626 0.0776909 -0.075801335
-0.019750273 0.044176772 0.014479988 -0.10435266 0.019710345 0.09727721 -0.055908736 -0.033157766

layer1.0.bias f4 [64]
00000000: d34b 31b6 36e0 cf35 6407 e4b5 1a4b 4336
00000010: 6596 2e36 9f23 08b6 8170 cc35 4da4 96b5
00000020: 5bb3 25b4 8b0a 6636 90ae fdb5 bd51 45b5
00000030: aff8 23b6 2832 11b6 3cb7 a835 1e44 8535
00000040: 0e3a 0e36 c563 3536 3ccc 05b5 8f75 9e35
00000050: 5fdd fa35 3c06 a435 b372 ddb3 1598 55b6
00000060: 9b4f 83b6 9322 86b5 0613 dbb5 1f3d 5536
00000070: 2933 6535 e05b 13b6 2db4 4db4 68b3 74b6
00000080: de13 f7b5 49e0 abb4 8da3 bbb5 f669 7cb6
00000090: e32a e535 03ec c0b5 a829 ee35 c90b 5f36
000000a0: 1199 3eb6 e6ba e634 4103 3636 6132 7234
000000b0: d9af 32b6 00f5 bdb5 b70e 6335 f709 f535
000000c0: b195 23b5 22cb 5635 d31a 5e34 4ecf a8b4
000000d0: c26c a835 84e1 eb35 5a14 0036 8484 28b5
000000e0: ae3b 4636 de69 6335 3eba e5b3 550e 90b6
000000f0: 56df ddb5 0cbb 68b6 0391 f435 79ee 0535
-2.641919e-06 1.5487956e-06 -1.6989475e-06 2.910098e-06 2.6015562e-06 -2.0286313e-06 1.5231927e-06 -1.1223689e-06
-1.5432072e-07 3.4278808e-06 -1.8900773e-06 -7.3507164e-07 -2.4433646e-06 -2.1635879e-06 1.2570304e-06 9.929097e-07
2.1193441e-06 2.7029175e-06 -4.984356e-07 1.1806131e-06 1.8690879e-06 1.2220767e-06 -1.0311978e-07 -3.1827997e-06
-3.9133715e-06 -9.99384e-07 -1.6322308e-06 3.177505e-06 8.5383596e-07 -2.1958185e-06 -1.915766e-07 -3.6463261e-06
-1.8408716e-06 -3.201442e-07 -1.3980185e-06 -3.7612604e-06 1.7074311e-06 -1.4373803e-06 1.7744505e-06 3.323645e-06
-2.8401303e-06 4.2976825e-07 2.7122007e-06 2.2556334e-07 -2.6626424e-06 -1.4152902e-06 8.45855e-07 1.8256823e-06
-6.094006e-07 8.001681e-07 2.068512e-07 -3.1443273e-07 1.2548628e-06 1.7574498e-06 1.9085332e-06 -6.277771e-07
2.9539037e-06 8.4718147e-07 -1.0697521e-07 -4.293203e-06 -1.6530782e-06 -3.467957e-06 1.8221621e-06 4.9893384e-07

layer1.1.weight f4 [64]
00000000: a546 7d3f db80 7c3f 9fdc 813f a8be 803f
00000010: e2b2 7d3f e59a 7c3f 6d4f 803f 2f9d 813f
00000020: b40e 813f 480f 7f3f ed27 823f 50d7 7b3f
00000030: 89ab 7b3f 23b8 803f 5b5b 7e3f ef0d 823f
00000040: 982b 823f a19a 7c3f 3800 7e3f 7a46 7f3f
00000050: 661c 7d3f f071 7f3f 311e 7b3f 2709 803f
00000060: 4ada 7b3f d084 803f 0138 803f 8c21 7f3f
00000070: fd48 813f 53ae 7b3f 1718 7b3f 6f2e 803f
00000080: 0c2a 7f3f 5da9 7b3f 932e 7d3f 26f1 813f
00000090: 74e4 7c3f 34b7 813f 1d12 7c3f 64e7 7a3f
000000a0: 4b14 7f3f ab1a 823f fa2e 803f 8a16 7c3f
000000b0: cb0f 803f 07a8 813f c070 823f 29ba 7b3f
000000c0: 67da 7f3f 4c4a 813f 6333 823f 39f1 803f
000000d0: 5dd1 7b3f 99b0 7e3f 76be 7a3f 52d9 803f
000000e0: 9209 803f 136d 7b3f 456a 813f 77d7 7a3f
000000f0: 56eb 7e3f 52cc 813f 169c 7e3f 7fc0 803f
0.9893592 0.9863412 1.0145453 1.0058184 0.9910108 0.9867385 1.0024239 1.0126094
1.0082612 0.9963269 1.0168434 0.98375416 0.98308617 1.0056194 0.9935815 1.0160502
1.0169554 0.98673445 0.99219084 0.99716914 0.9887146 0.9978323 0.98092943 1.0002793
0.9837996 1.0040531 1.0017091 0.99660563 1.0100399 0.9831287 0.98083633 1.001417
0.99673533 0.983053 0.9889919 1.0151718 0.9878609 1.0134034 0.9846514 0.98009324
0.9964034 1.0164388 1.0014336 0.9847189 1.000482 1.0129403 1.0190659 0.9833093
0.9994263 1.0100799 1.0171932 1.0073615 0.9836634 0.99488217 0.9794687 1.0066321
1.0002921 0.9821331 1.0110556 0.97985023 0.99577844 1.0140479 0.9945692 1.0058745

layer1.1.bias f4 [64]
00000000: b7f2 09bc 3532 76bc 1250 a4bc 981e 523b
00000010: 84be 28bc 01bf 3fbc ae39 b7bb 8231 43bc
00000020: 4e24 a0bc 7232 34bb 552a 4aba b737 03bc
00000030: 1611 77bc d6a8 4ebc 44ea 8e3b 510e 5ebb
00000040: 343c 62bc 0756 6fbc ce9c e2bb e73f 9ebc
00000050: dfe1 3cbc 64a1 42bc 8949 78bc aa1e 42bc
00000060: 15b2 59bc 8e9c a0bc 6a20 8fbc d3fd 90bb
00000070: 3d80 e0bb 365f 96bc d0c0 93bc d3a9 87bc
00000080: b2d8 87bc 123d 2cbb 48be 9fbc 7955 87bc
00000090: 9c3b a9bc 5524 2a3b d69b a4bc 6ca4 82bc
000000a0: 8d77 f6bb 198f 03bc 7062 8abc 4968 8cbc
000000b0: a4fc 80bc d7ed d23a 2850 493b 4c7c 8ebc
000000c0: 9e72 9bbc bd12 4ebc 6cb3 d0bb 03d2 56bc
000000d0: fdcc 52bc 3fee 30bc 33c9 a4bc ac95 9fbb
000000e0: 9616 493a 5480 97bc d1ca d03b 465d 9abc
000000f0: 5d61 01bb df92 cabb a012 37bc 3e57 56bc
-0.008419684 -0.015026619 -0.020057712 0.0032061692 -0.010299329 -0.011703254 -0.0055915928 -0.011913659
-0.019548561 -0.0027495888 -0.00077119964 -0.008008889 -0.015079757 -0.012613496 0.0043614227 -0.0033883045
-0.013808299 -0.014607913 -0.006915665 -0.01931758 -0.011528461 -0.011879299 -0.015154251 -0.011848131
-0.013287087 -0.019605901 -0.01747151 -0.0044247895 -0.0068512247 -0.018355947 -0.018036276 -0.01656047
-0.01658282 -0.0026281518 -0.019499913 -0.016520249 -0.020658307 0.0025961597 -0.02009384 -0.015947543
-0.007521576 -0.008029723 -0.016892642 -0.01713957 -0.015745468 0.001609261 0.0030717943 -0.017393254
-0.018975552 -0.01257771 -0.006369045 -0.013111594 -0.012866256 -0.01079899 -0.02011547 -0.004870137
0.0007670907 -0.018493809 0.006371834 -0.018843304 -0.001974187 -0.006182059 -0.011173874 -0.013082324

layer1.1.running_mean f4 [64]
00000000: db16 03bf d9b7 393e 575e 3a3f e5f4 c2be
00000010: b455 333f fdb0 f4be e63d 4040 1a3d 10bd
00000020: e672 103f b549 863f ea9b d53f 145a c43e
00000030: b259 43c0 734d 223f af31 1fbf b05f 413f
00000040: 68cd 623f 23a1 aabf 0ced cf3e be07 123d
00000050: fe81 293f eb22 c4bf a997 08bf 5696 953f
00000060: d92e 5e3f 752a 343e 4cd0 a03b 2f5f 4fbf
00000070: 90d8 1d40 5d61 c13f 19fe db3e 6c1a 95bc
00000080: 62c0 b1be 360d dbbf db41 80bf cea7 203f
00000090: 64d9 733f bb52 a6be 8c0e f43f d33d 11c0
000000a0: 343b 01bf c01e b13f c26b c4be 6ac3 96bf
000000b0: f462 ab3f e0e9 3e3e 169b 633e 9903 b4bf
000000c0: 2d2e b7be 56e7 3f3e 7a34 e1bd 0e41 963f
000000d0: 2019 9ebf 2197 c93f 2c43 e8bf 67ce 17bf
000000e0: 79df b53e 12b1 d7bf 39f6 58bf 5f5d 01c0
000000f0: ae46 c43e 384b 803f ffd2 35bf 8b29 5e3f
-0.5120675 0.18136539 0.728002 -0.38077465 0.7005265 -0.4779128 3.003778 -0.03521452
0.5642532 1.0491244 1.6688206 0.38349974 -3.0523496 0.6339943 -0.62185186 0.7553663
0.88594675 -1.3330425 0.4061054 0.035651915 0.6621398 -1.5323156 -0.53356415 1.1686504
0.86790234 0.17594321 0.0049076434 -0.81004614 2.466343 1.5107838 0.429673 -0.018201075
-0.3471709 -1.7113407 -1.0020097 0.6275605 0.95253587 -0.32484993 1.9066939 -2.2693985
-0.5048096 1.3837509 -0.38363463 -1.1778386 1.3389573 0.18643904 0.2222713 -1.4063598
-0.35777417 0.18740591 -0.10996337 1.1738603 -1.2351418 1.5749246 -1.8145499 -0.5929932
0.3552206 -1.6850913 -0.84750706 -2.021324 0.38335174 1.0022955 -0.7102508 0.8678214

layer1.1.running_var f4 [64]
00000000: 2900 d33f e411 1e40 af09 a940 379f d83f
00000010: 338a 8340 c492 5140 a073 7540 8260 ff40
00000020: 7354 7040 5fc3 6d40 b807 d040 0ada 6840
00000030: 8b48 5f40 379d 8440 24b1 963f 3aa8 ae40
00000040: 7fa1 9140 30f9 2740 9193 cd3f 1612 a540
00000050: 3af5 2a40 e920 ff3f 60f3 e93f faaa 7140
00000060: 9f26 5140 1eb8 8940 3530 c03f 8771 4240
00000070: f3bd d040 7ded 6240 3d3a f93f 3633 9f40
00000080: 0eba 2340 d392 5d40 2109 9640 16c4 e540
00000090: 6b5a 4940 5345 6240 5e49 8440 1dec b440
000000a0: 392f 9440 62ca 6140 810d f93f 3bd2 b240
000000b0: 99b8 ad40 6679 b640 7bf9 d140 ef33 3140
000000c0: 1714 9940 a608 6140 e84c 3440 abbe 9a40
000000d0: 4c3f 0140 c720 a740 66d2 d63f 49b9 6640
000000e0: bf36 7740 ba95 7b40 e14a 1040 88e8 6540
000000f0: 815a 1740 cd08 f540 5e91 ba40 112f 1240
1.6484424 2.469842 5.282432 1.6923589 4.11062 3.2745829 3.8351822 7.9805307
3.7551544 3.7150495 6.500942 3.638308 3.4888027 4.1441913 1.1772809 5.4580355
4.550964 2.6245842 1.6060659 5.1584578 2.6712174 1.9931918 1.8277397 3.7760606
3.2679822 4.3037252 1.5014712 3.0381792 6.523187 3.5457451 1.9470898 4.9750013
2.5582309 3.4620864 4.6886144 7.1801863 3.1461437 3.5354812 4.133956 5.6538224
4.6307645 3.5279775 1.9457246 5.588163 5.428784 5.702319 6.561704 2.7687948
4.7837024 3.5161529 2.817194 4.835775 2.0194883 5.222751 1.6782959 3.605059
3.8627164 3.9310136 2.2545702 3.5923176 2.364899 7.6573243 5.830245 2.2841227

layer2.0.weight f4 [64, 64, 3, 3]
00000000: 7d0c 5f3c be7b 40bd b930 023d 128f abbd
00000010: 13ed 5abc c3ba 57bd 627c 78bd 6762 22bd
00000020: 28e3 043e c214 34bc 19e5 f93c 33eb abbd
00000030: 9b0d 27bc 50a1 bdbb f63d 49bd af84 053e
00000040: 89ab a9bd 7939 22be 0c17 fd3d 818d 013d
00000050: ff04 e53c a004 56bd 565d 34ba 2a83 07bd
00000060: 75aa 61bd 5893 633c 5e67 92bd 405a c13d
00000070: 56ea e73d ef7c 0fbd 59bb abbd 60a4 92bd
00000080: 6f68 5c3d 4426 a7bc 913f 42bd 7b64 0fbd
00000090: a321 1bbd b991 62bd d37b fdbb 8f0c 89bc
000000a0: a671 343d f423 7c3d 78a9 0dbc e928 fa3c
000000b0: d48e 3d3d 2151 e03c 970d 1fbc ffa8 7a3b
000000c0: 0890 cd3c cf3a d8bc 4965 e9bd ac64 8a3d
000000d0: 4bd0 5ebc 0a36 46bd 660f 1abd 9181 c23c
000000e0: 1efa 23bd f158 8d3d 7b2c 0bba f077 7ebd
000000f0: 2dce 043e 03b6 803d c841 963d 3886 71bd
00000100: 21b4 273d 1935 c8bd 82e3 75bc d670 0c3d
00000110: 59d2 303d f772 febc 2d79 123e 3bb3 bf3d
00000120: 83da 703d 82b1 d5bc 2252 d23c 0a0b a0bc
00000130: 989d 4ebc 2308 a7ba 2bb4 0a3c ac5c dabd
00000140: f49e 723d c3c0 af3d 239c 2d3d c70d 173c
00000150: 14d0 96bd ac41 5c3c c1f2 1c3d 6d6e 0b3d
00000160: 68a2 db3c d0d7 a03c cfaf a3bc ff7c 48bd
00000170: 5a2a 86bc c74f fd3d 1921 923d 5a4d 943d
00000180: e02a b93d aa36 963b 3dca a3bc 3c50 7c3c
00000190: 9d7e 963d c2ab 24bd 6b0b 273d 96eb 10bd
000001a0: c89f 95bc c47c b9bd ee94 8cbc 4a50 da3d
000001b0: 6826 c03d afb6 b23b 1887 8bbb 3691 7bbd
000001c0: fb06 063e 6c4b 7ebc cef6 303d 40da b93d
000001d0: 4de0 5b3d 58cd 04bd 10af ebbc 60f4 4c3d
000001e0: 1318 a6bd ebdd af3d 0209 3c3d 4b8c 1a3d
000001f0: b375 ea3c 1177 3f3e 2e69 513d 30cc 323d
00000200: 9eab c2bc d67f 183e d895 3c3e 5e55 b6bd
00000210: 0b0e 60bd 26e6 233c 92ed 023e 8b26 593d
00000220: bf02 03be ed29 e33c a481 d63b 22d7 983c
00000230: c263 053e 3905 753c 7972 23bd b79a a3bc
00000240: 09ec 65bd 5731 903c 6079 9fbd f1f2 2cbd
00000250: d4dc 3abd b0c5 3e3c 3e47 893d 2cdb dabc
00000260: ff5b 7e3d 91d6 cabb 913e 983d 3514 863d
00000270: c944 6b3c ac2b 9fbd be62 eabd dd5a fcbd
00000280: fc4f 8bbd 5605 a3bd d545 b8bc e749 cebd
00000290: 026a 82bc 4380 30bc 05f7 a4bd 49dc 35bd
000002a0: e051 7f3d 8469 b0bd ab29 203d 6930 1dbd
000002b0: 062d ceb9 d20a 6dbd 74e4 2bbd 714c 863d
000002c0: 8df8 5f3d 4f3d d83c 4fe4 34bd f1c4 ba3a
000002d0: 006d 32bd 12d9 f4ba 9b0e ee3d 3c2c 0139
000002e0: 3f17 583d 01b7 5bbc 91a2 95bc 5488 a0bc
000002f0: 97b7 6cbd 7b3c 283c b4b2 063c 2be0 fbbb
00000300: 8a16 8ebd e633 443d 6916 a53d 2062 f73c
00000310: 7ffa d7bd c205 063d 0b2e 82bc b880 d9bd
00000320: 52c1 2c3c 4b87 3ebd cdfc 8d3c 85dc 91bd
00000330: 540f d83d fea5 893d f989 7e3d ca13 873d
00000340: 2b06 febd e073 343d f31a a4bc 721d 87bc
00000350: a8fb 67bd 026c 183d f702 a439 3ec0 863d
00000360: abfb 4a3d 7264 f0bc 5373 793d 3ea5 143d
00000370: d8f7 13bd 37bd 69bd ed1a ea3d 192c 27be
00000380: baa0 bb3d 8f3a 53bd 43f1 df3b 5592 2e3c
00000390: 6f95 233d 6b06 9cbd 0d66 aebc 08a6 063c
000003a0: eff9 73b9 f632 2b3e ec79 ecbd a021 80bd
000003b0: 7e6d 0b3d 8384 aebc 79a5 40bb 1a20 7fbb
000003c0: 54f8 b03a a8a2 03bd f8d2 5dbc c635 bd3d
000003d0: d29f 74bd c4ca 9d3c 6bcf 9cbd 53b6 5b3d
000003e0: b889 583d b5dc 84bd bf07 103d 5106 123d
000003f0: 8f5d 10bd 6e18 0e3c e2bc cdbd e7ed 733d
0.013613817 -0.04699301 0.031784747 -0.08376898 -0.013362187 -0.052668344 -0.060665496 -0.039644625
0.12977278 -0.010991277 0.03050475 -0.0839447 -0.010196115 -0.005787052 -0.049131356 0.13038896
-0.08284671 -0.15842237 0.123579115 0.03162909 0.027956484 -0.052250504 -0.0006880363 -0.033084072
-0.0550942 0.01389011 -0.07148622 0.09441042 0.11323993 -0.035031255 -0.08385343 -0.07160258
0.053810533 -0.020403989 -0.047423903 -0.035007935 -0.037873875 -0.055314753 -0.0077357083 -0.016729621
0.044053696 0.061557725 -0.0086463615 0.030537086 0.04627879 0.027382435 -0.00970783 0.0038247702
0.025093094 -0.02639523 -0.11396272 0.06757483 -0.013599466 -0.04839138 -0.03761234 0.023743423
-0.040033452 0.0690173 -0.00053090573 -0.0621261 0.12969275 0.06284716 0.073367655 -0.05896589
0.04094327 -0.097757526 -0.015007855 0.034287296 0.043169353 -0.031060679 0.14304037 0.093603574
0.05880214 -0.026085619 0.02567393 -0.019536514 -0.012610815 -0.0012743514 0.008465807 -0.10662207
0.05923362 0.08581688 0.04238523 0.009219593 -0.073639065 0.013443392 0.038317446 0.034040857
0.02681084 0.019634157 -0.019981293 -0.04894733 -0.016377617 0.12368732 0.07135219 0.07241316
0.09041381 0.004584153 -0.019993896 0.015399989 0.07348368 -0.040202864 0.040782373 -0.035380922
-0.018264666 -0.09057 -0.017160859 0.10659845 0.093823254 0.0054539065 -0.004258048 -0.06141778
0.130886 -0.015520912 0.04320412 0.09074831 0.053680707 -0.032422394 -0.02877 0.05003774
-0.081100605 0.08587249 0.045907028 0.03773145 0.028620576 0.18697764 0.051125698 0.04365176
-0.023763474 0.14892516 0.18416536 -0.08903001 -0.054700892 0.010003602 0.12785938 0.053015273
-0.12794016 0.027729953 0.006546216 0.01865727 0.13026336 0.014954858 -0.03990409 -0.019971235
-0.056133304 0.017601652 -0.07786822 -0.042223874 -0.045620754 0.011643812 0.067030415 -0.026715837
0.062099453 -0.006190129 0.074338086 0.06546823 0.014359661 -0.077720016 -0.11444615 -0.12322018
-0.06802365 -0.07960002 -0.022494236 -0.100726895 -0.01591969 -0.0107727675 -0.08054928 -0.044399533
0.06233394 -0.086138755 0.039102238 -0.038376246 -0.00039324927 -0.057871647 -0.041965917 0.06557549
0.054680396 0.026396422 -0.044163045 0.0014249367 -0.04356098 -0.0018680415 0.116238795 0.00012318877
0.052756544 -0.013410331 -0.018265994 -0.019596256 -0.057792272 0.010268326 0.008221317 -0.007686635
-0.06937893 0.047901057 0.08060915 0.030198157 -0.10545825 0.032720335 -0.015891096 -0.10620254
0.010544138 -0.046515744 0.017332459 -0.07122139 0.105497986 0.067211136 0.0621433 0.06595571
-0.1240352 0.04405582 -0.020032382 -0.016493533 -0.056636482 0.03721238 0.00031282727 0.06579636
0.049556416 -0.029344771 0.060900997 0.0362904 -0.036125034 -0.057065215 0.11430917 -0.16325416
0.091615155 -0.051569518 0.0068341806 0.010655005 0.039937433 -0.07618412 -0.021288896 0.008218296
-0.00023267393 0.16718659 -0.11546692 -0.062564135 0.034039967 -0.02130342 -0.0029395504 -0.0038929046
0.0013501742 -0.032137543 -0.013539068 0.09238772 -0.05972273 0.019261725 -0.07656749 0.053640675
0.052865714 -0.06487409 0.035163637 0.035650555 -0.035245474 0.008672817 -0.10045792 0.059553053

layer2.0.bias f4 [64]
00000000: 3a3b 4236 017d 1a37 dc13 3936 df68 0bb6
00000010: 01f6 9934 aba4 17b6 538a 97b5 3a85 d836
00000020: 5877 46b6 f748 fdb4 aa3e 45b6 cab9 42b7
00000030: 853a fe36 c32f ca36 e12e 93b6 6cad 8bb4
00000040: 6c4c 7234 61d6 a8b4 46ca 1236 22e2 2f36
00000050: 1f5a ae35 b07f d135 39f1 00b6 7a10 02b6
00000060: dd2c 3bb6 2203 7bb5 0575 9135 4081 b535
00000070: 65fc 0537 3d47 d535 91f1 7936 72cd 9eb6
00000080: dfed 25b7 2af2 c334 d09c d7b5 4c49 1037
00000090: 59d6 7834 faf8 2db7 7af0 29b6 29ea 1437
000000a0: 4f08 39b6 e99c 22b6 b419 69b5 bba5 4337
000000b0: d83e ea35 ecb3 2c36 af30 8434 fef9 d333
000000c0: 3725 0fb6 8e13 9d35 ae69 7935 c0e3 b6b4
000000d0: 1ad1 34b5 00e4 afb6 f346 0336 a11f 48b7
000000e0: 0164 d134 d937 0936 ff4a 49b7 55f7 6f36
000000f0: 0184 08b4 993f 6635 850e 7b36 9112 33b6
2.8942727e-06 9.20822e-06 2.7578708e-06 -2.0773657e-06 2.8677462e-07 -2.2596603e-06 -1.1290634e-06 6.4528112e-06
-2.9573766e-06 -4.717801e-07 -2.9391763e-06 -1.16065585e-05 7.5766025e-06 6.0256293e-06 -4.386399e-06 -2.601695e-07
2.2565808e-07 -3.144842e-07 2.1873434e-06 2.6208659e-06 1.2990239e-06 1.5608875e-06 -1.9213896e-06 -1.93811e-06
-2.7891285e-06 -9.3509345e-07 1.0837399e-06 1.3523168e-06 7.986183e-06 1.589047e-06 3.7244502e-06 -4.732684e-06
-9.89015e-06 3.6497778e-07 -1.6064387e-06 8.600135e-06 2.3174779e-07 -1.0369573e-05 -2.5322938e-06 8.876007e-06
-2.7571984e-06 -2.4231215e-06 -8.6836667e-07 1.1661493e-05 1.7452649e-06 2.5734726e-06 2.4622338e-07 9.8709265e-08
-2.1330322e-06 1.1703103e-06 9.291351e-07 -3.4065852e-07 -6.735951e-07 -5.241949e-06 1.956182e-06 -1.1928293e-05
3.9002046e-07 2.0447098e-06 -1.1997995e-05 3.5757741e-06 -1.271401e-07 8.5774224e-07 3.7410366e-06 -2.6683886e-06

layer2.1.weight f4 [64]
00000000: b62f 823f 4da0 823f 2ac5 803f 5900 823f
00000010: 1f9f 823f ba46 823f f202 823f 4ca6 823f
00000020: 7189 823f bd8c 823f 063e 813f 6a9d 823f
00000030: ab2f 823f 16ed 803f f29c 823f fba7 823f
00000040: 3c97 823f f552 813f fb9e 823f 619c 823f
00000050: ca41 823f ba9e 823f a0e3 803f d69b 823f
00000060: 5815 823f 2087 823f be2c 823f 4a9a 823f
00000070: 82a8 823f a490 823f f49f 823f aa96 823f
00000080: 9943 823f 9f9c 823f de32 823f 1997 823f
00000090: 6020 823f 53ac 823f fe9d 823f fd9d 823f
000000a0: bd9a 823f b3bc 803f 7699 823f aaab 823f
000000b0: 0c45 823f 6e8a 823f bf09 823f b125 823f
000000c0: 178d 823f 77d7 803f 6f4b 803f 4c8f 823f
000000d0: a4ef 813f ceb3 813f ebc7 813f f094 823f
000000e0: f3a3 823f 7ba8 823f b091 823f e9a0 823f
000000f0: cc9e 823f b615 823f 88a8 823f eb94 823f
1.017081 1.020517 1.006017 1.0156356 1.020481 1.0177834 1.0157149 1.0207
1.0198194 1.01992 1.0097053 1.0204289 1.0170797 1.0072353 1.0204146 1.0207514
1.0202403 1.0103441 1.0204767 1.0203973 1.0176327 1.020469 1.0069466 1.0203807
1.0162764 1.0197487 1.0169904 1.0203335 1.0207675 1.0200391 1.0205064 1.0202229
1.0176879 1.0204047 1.0171773 1.0202361 1.016613 1.0208839 1.0204465 1.0204464
1.0203472 1.0057586 1.0203083 1.0208638 1.0177321 1.0198495 1.0159224 1.0167753
1.0199307 1.0065755 1.002302 1.0199981 1.0151258 1.0132997 1.0139135 1.0201702
1.0206283 1.0207666 1.020071 1.0205356 1.0204711 1.0162876 1.0207682 1.0201696

layer2.1.bias f4 [64]
00000000: cfab 8b3c 3723 a63c 8ad3 ff3b 5fbb 7a3c
00000010: c11f a83c a65a a63c 0cdb 773c 3d54 a73c
00000020: 9120 8b3c 0198 8e3c 00fa 933b 1618 a73c
00000030: daa4 a53c 2331 173b c974 a83c 046a a53c
00000040: a6b7 a33c c675 1d3c 82e2 a73c cd78 a53c
00000050: ce0a a13c b169 a33c 7fec af3b 5a80 a73c
00000060: 7f09 813c bb07 923c ea65 8b3c 2470 a63c
00000070: 4a69 a53c 4d7d a33c 4523 a63c efcb a73c
00000080: 792e a63c 106d a43c fcc7 133c ab76 a63c
00000090: 8eb0 733c af8b a53c b708 603c bc9c a53c
000000a0: e630 a63c 290d d53b 013e a83c 0ddd a33c
000000b0: d54f a33c 7310 a43c 49f4 883c 546b 643c
000000c0: 99b6 833c d136 003c acdb 823b b454 323c
000000d0: 5202 513c e89a 623c 81da 853c 5827 a53c
000000e0: 08b1 a23c 35bb a73c 6150 a63c bd48 913c
000000f0: dc02 a03c f744 823c 2aa3 a53c fc8b a33c
0.017049698 0.020280464 0.0078072 0.015303462 0.020522954 0.020306896 0.015127908 0.02042591
0.016983302 0.017406465 0.0045158863 0.020397227 0.020220209 0.002307006 0.0205635 0.020192154
0.019985031 0.009610599 0.02049375 0.020199204 0.019658472 0.019947859 0.0053687687 0.020446945
0.015751598 0.017825952 0.01701637 0.020317145 0.020191807 0.019957209 0.02028049 0.020482985
0.020285832 0.020071536 0.009019848 0.020320257 0.014873637 0.020208208 0.013673953 0.020216338
0.020286988 0.006501813 0.020537378 0.020002866 0.019935528 0.020027375 0.016718047 0.013941605
0.01607828 0.007825569 0.003993472 0.010884453 0.012756901 0.013830878 0.016339542 0.020160362
0.019859806 0.02047501 0.020302 0.01773488 0.019532613 0.015902026 0.020219404 0.01996421

layer2.1.running_mean f4 [64]
00000000: a127 d93f ec64 e83f 9683 c33f ae10 ca3f
00000010: d795 0b40 f3ee df3f 912e a13e d239 b43f
00000020: 9a20 323f 5dad 633f 6044 8e3f ae5c a13e
00000030: b9af b73f e221 703f 9662 3fbe c9bc d93f
00000040: f23c a23f 2963 913f c5a7 a73f 41dd b03f
00000050: d279 1a3f 4311 793f 0b6b b0be e29f ed3f
00000060: 1699 0d40 157a 4e3f c5dc a23f 10a6 e23f
00000070: 46ab 0d40 a429 c03f 523f f33f 041f aa3f
00000080: 439a a03f 8e3c d53f f433 393f bedf cb3f
00000090: 55e6 833f c32b 6c3f ea3c 1d3f 6a54 fa3e
000000a0: 84bd 0f3f 5b23 40bf b946 cbbb ada7 1940
000000b0: e337 d73f ab18 c43f d4a2 8f3f 2872 423f
000000c0: 519f 813f 73ba 443f 7ed9 0940 96d0 8c3f
000000d0: 3c86 b7be 6b1f 553f 0b43 f43f 9cc8 a53f
000000e0: 186a dc3f 3eb1 dc3f abc4 453e 8ae7 c93e
000000f0: cdb5 583f 95e7 3c3f 158e 1240 26e8 8e3f
1.6965219 1.8155799 1.5274532 1.578634 2.1810205 1.7494797 0.3148084 1.4080145
0.69580996 0.88936406 1.1114616 0.3151602 1.4350501 0.938017 -0.18689951 1.7010738
1.2674849 1.1358386 1.3098074 1.3817521 0.60342133 0.97291964 -0.34456667 1.8564417
2.2124686 0.8065503 1.2723624 1.7706928 2.2135787 1.5012708 1.9003699 1.3290715
1.2547077 1.6659105 0.723449 1.5927656 1.0304667 0.92254275 0.6142107 0.48892528
0.5614855 -0.7505395 -0.006203499 2.400859 1.681393 1.5320028 1.1221566 0.7595544
1.0126745 0.76847 2.1538997 1.1001155 -0.358446 0.83251065 1.908296 1.2951846
1.7219877 1.724159 0.19313304 0.39434463 0.84652406 0.73790866 2.289922 1.1164596

layer2.1.running_var f4 [64]
00000000: 7135 8440 dfe7 8b40 8a18 7e40 21df 8b40
00000010: 7784 d940 9182 ae40 f217 d03f 1e90 3f40
00000020: 0b4b 5240 7c53 2240 1251 8740 71e1 4d40
00000030: 074e 4c40 8680 ed3f 85ba 3d3f f05c 8b40
00000040: 7757 4940 fce0 5f40 164c 9240 c5cc a040
00000050: 4e31 2740 6541 0c40 4f6c 0d3f c072 ae40
00000060: 1247 b240 cc6c 3f40 afc7 8d40 48d0 af40
00000070: f6a3 9a40 20de 8f40 4948 ad40 d071 9940
00000080: aa63 7f40 da77 c840 b946 5f40 e2f5 8d40
00000090: 8b03 5e40 470d 1340 6e6c 1240 754b 0840
000000a0: a3a7 1d40 0eb7 7b3f e5c0 d43f 6f41 d140
000000b0: 262e 9640 8295 9640 5bbb 8540 ee60 1740
000000c0: 7305 5940 3e05 4b40 f6fe bc40 fd06 7940
000000d0: dbf3 193f f43e 7e40 eb5e 8e40 a554 8740
000000e0: a076 be40 4084 8740 fcfe 6a3f 24e6 973f
000000f0: b31c 3940 15c3 4840 aaad d540 a4bc 8040
4.1315236 4.3720546 3.9702477 4.3709874 6.79742 5.4534383 1.6257308 2.9931712
3.2858303 2.5363455 4.2286463 3.2168849 3.1922624 1.8554847 0.7411273 4.355095
3.1459634 3.498107 4.571788 5.0249963 2.6123843 2.1914914 0.5524339 5.4515076
5.5711756 2.9910154 4.4306254 5.494175 4.832515 4.495865 5.415074 4.795143
3.990458 6.2646303 3.4886916 4.436265 3.4689662 2.2976854 2.287868 2.1296055
2.4633567 0.98326194 1.6621367 6.5392375 4.6931334 4.7057505 4.1791205 2.365291
3.3909576 3.172195 5.906123 3.8910515 0.6013772 3.9725924 4.4490867 4.2290826
5.9519806 4.234894 0.91795325 1.1867108 2.8923767 3.1369069 6.677449 4.0230274

fc1.weight f4 [8, 256]
00000000: e0a4 873c ff10 863c 0999 cd3c c407 d73c
00000010: b79f d53c d201 cf3c 4a30 b23c 8cb9 013d
00000020: 41c3 8f3c 8b2d feba d6b9 403b 1490 8e3c
00000030: 3868 723c e635 043d 28e7 ac3c 6524 a23b
00000040: 3e3a f33c 1e95 283d 39b6 de3c 1d90 563c
00000050: 11d4 d13c 18ee 963c edf1 cc3c 287c 9b3c
00000060: b52b eabc 280d b5bc a3e7 8b3c 9ca1 f63c
00000070: ed7f 023d fbe7 d13c afa5 133d 5c9b e03c
00000080: 15ba cc3c 2296 c53a e5de ef3c 96cb 523c
00000090: 8cbf 9d3c 10b1 043d 4787 293c fd01 1c3c
000000a0: 8db3 5c3c dc07 f93c e0fd f73c d1c8 033c
000000b0: 7de9 943c d804 a13c 9a8a 363d 38e9 0f3d
000000c0: e17e ab3c 53ad 283d ede1 103b ebd7 123d
000000d0: f32b 22bc 6931 d3bc f229 52bc e6dd aebc
000000e0: 6ee6 9d3c 4e1c f63c f654 f9bc 0f8e acbc
000000f0: 7baa a03c ba3a 183d 874d f73c 8916 203d
00000100: 3115 b53c ccc3 b03c a291 d53b 5756 e73c
00000110: 7a08 a73c bc3d de3c fe43 a43b 9a09 843b
00000120: 0a46 cd3c 930f a83c 4115 ab3c d3fd c83c
00000130: 89ad 903c 27e9 123d 7e61 c13c 0c67 5f3c
00000140: 62a0 d53c bf0a b43c 2d8b a93c e3fb 153d
00000150: a9c9 9b3c 6652 84bc 46f9 a63c dff3 1d3d
00000160: afbb 173b dba0 40bc 812e 993c e1be c2bc
00000170: 7914 8c3c 7fe6 003d 3816 d83b 0efc ce3c
00000180: c514 e23c 9d2c 843c ad53 963c 9061 8d3c
00000190: bc1e f63b 738d a33c 0d92 c03c 2e08 143d
000001a0: c52a eb3c 72d5 cc3b 3e36 f33b 4464 4f3c
000001b0: 6d74 943c 4297 f63c 747e 0f3d e94d c43c
000001c0: 7a56 f03c ea1b 963c 0aa5 1a3d 4531 3e3c
000001d0: ae4f 4e3c 311a d93c 0f29 973c 11d6 793c
000001e0: ca4c 963c 9aad 063d 44c5 db3c 2d6e 043d
000001f0: 2cae ee3c 1750 9f3c 9d6c d43c 8da6 c53c
00000200: 81ed bd3c 423d 5f3b 427a f83c 6107 f83c
00000210: 9c69 b93c 1364 bf3c fb8b c53c d005 213d
00000220: aa29 cd3a 0a6a f53c fd4e 893c 8e44 253c
00000230: c312 cf3c 1f88 373c 0b09 a2bb e951 0e3d
00000240: 8e1b f73c 2027 5fb9 38d1 863c 4786 ed3b
00000250: 47b9 8c3b cfb5 f53c 9a0e 123d e4e9 e63c
00000260: 669f e53c eda1 713c df8e 83ba b22a 94bb
00000270: 20a0 723c 79a7 dc3c 0bf8 6d3c 6214 6a3d
00000280: 1fad 213d fdb4 db3c a87d 8b3c 73a8 f63b
00000290: 30f8 dd3c 6e9f cd3c 7899 753a 3c4b 50bc
000002a0: 22bc 9d3c c583 59bc 18c7 063d 68ce 82bb
000002b0: 4902 0b3d 6834 393c 554b 1b3c 5ac0 ee3c
000002c0: 9f82 003d 6019 063d 486d e83c 32f4 993c
000002d0: 6877 eb3c ff25 d53c cc49 b43c 05d5 b5bb
000002e0: b8fb 9a3c 13b0 fb3c ce13 d53c 262e 393c
000002f0: 3850 f63c 3d34 b5bb cf6c 71bb 4dfe 6e3c
00000300: 47f1 aa3c b74a 033d 8d98 533c 5072 4c3c
00000310: 7b9d d83b 05a9 b5bb 7707 c23c 6f10 973c
00000320: d26e bf3c 317e 573c b9ad 043c 4369 ba3c
00000330: 654c 503c 85b8 cb3b 98b9 3e3c 904e f33c
00000340: 2ea6 0a3d cd48 103d 1b0c 91bc 48d3 fbbc
00000350: 8145 b63c d399 133c 330f 753c 0fc0 f43c
00000360: fdc6 b53b a510 6d3c be25 ee3c 0cab 143c
00000370: 567c a43c 6be1 063d 11ec f53b c75d 163d
00000380: 2523 8b3a a5c9 71b9 799f 843c 87b0 8d3c
00000390: 02f6 be3c 4bc2 653c f771 a53c b0a0 7b3c
000003a0: ebaf 04bd dc48 12bd 1cba da3c 64c1 843c
000003b0: 3fed ae3c 4ef0 3b3c 7366 ae3c 8d88 38bd
000003c0: c05c 823c 60d3 873c d9e3 d03c 053c 123d
000003d0: 3194 4d3a 4d2f 72bb 6f27 893c 6848 e03c
000003e0: 173f b93c 1583 ce3c 7417 aa3c 5d50 a13c
000003f0: 482f cc3c de5d e63c be34 f93c 0f37 063d
0.01655811 0.016365526 0.025097387 0.02624882 0.026077135 0.025269423 0.021751542 0.031671092
0.017549159 -0.0019392235 0.0029407642 0.017402686 0.0147953555 0.032277964 0.021106318 0.004948186
0.029690858 0.041157834 0.0271865 0.013095883 0.025613816 0.018424079 0.025017703 0.0189801
-0.028585294 -0.022101 0.017078226 0.030106358 0.03186028 0.025623312 0.03604668 0.027417831
0.024991075 0.001507465 0.02928109 0.0128659215 0.019256376 0.032395422 0.010347194 0.009521958
0.013470543 0.030399255 0.030272424 0.008043484 0.018177742 0.01965563 0.044565775 0.035134524
0.020934524 0.04118092 0.0022107319 0.035850447 -0.009898174 -0.025780397 -0.012827383 -0.021346044
0.019274916 0.030042794 -0.03043602 -0.021063833 0.019612541 0.03716538 0.030188335 0.03908399
0.022104831 0.021577738 0.006517605 0.028239412 0.020389784 0.027129047 0.005012988 0.004029465
0.025057811 0.020515239 0.020884158 0.024535095 0.017660873 0.035866883 0.023606058 0.013635408
0.026077453 0.02197778 0.020696247 0.03661717 0.019017057 -0.016152572 0.020382535 0.03856265
0.002315264 -0.011757101 0.018698933 -0.023772659 0.017099606 0.03146982 0.0065944456 0.025266673
0.027597794 0.016134555 0.018350447 0.017258435 0.007510988 0.01996491 0.023507142 0.036140613
0.028706918 0.0062510306 0.0074222377 0.0126581825 0.018121922 0.030101422 0.035032704 0.023962932
0.02933811 0.018323857 0.03775505 0.011608426 0.012592239 0.026501747 0.018452195 0.015248791
0.018347163 0.032880403 0.026827462 0.032331634 0.029135786 0.01944737 0.025930697 0.02412727
0.02318454 0.0034063612 0.030331735 0.030276956 0.022633366 0.023363149 0.0241146 0.039312184
0.0015652676 0.02995779 0.016761297 0.0100871455 0.025277501 0.011201887 -0.0049449257 0.034746084
0.030164506 -0.00021281512 0.016457185 0.007248673 0.0042945477 0.02999392 0.035658456 0.0281877
0.028030109 0.014748079 -0.0010037086 -0.0045216912 0.014808685 0.026935326 0.01452447 0.057148345
0.03947174 0.0268197 0.017027691 0.007527405 0.027095884 0.025100436 0.0009368877 -0.01271325
0.019254748 -0.013276045 0.032904714 -0.0039918907 0.033937726 0.0113039985 0.00947841 0.029144455
0.03137457 0.032739043 0.028372422 0.0187932 0.02874346 0.026019095 0.022007845 -0.0055490755
0.018918857 0.030723607 0.02601042 0.011302507 0.030067548 -0.005529909 -0.0036838537 0.014586997
0.020867003 0.032053676 0.012914789 0.012478426 0.00661057 -0.0055438303 0.0236852 0.018440453
0.023368273 0.013152645 0.008098059 0.02275527 0.012713526 0.006217065 0.011640929 0.029700547
0.033849888 0.03522568 -0.017705968 -0.030740395 0.022249939 0.0090088425 0.014957237 0.029876737
0.005547403 0.0144693 0.029070731 0.009073984 0.02007882 0.03292982 0.007504948 0.036710527
0.0010615332 -0.0002305867 0.016189324 0.017296089 0.023310665 0.014023374 0.020195944 0.015358135
-0.03239433 -0.035714015 0.026700072 0.016205497 0.021353362 0.011470867 0.021289086 -0.0450521
0.015913367 0.016580284 0.025499271 0.03570177 0.00078422116 -0.0036954463 0.016742436 0.027378276
0.022613091 0.02520899 0.020763136 0.01969164 0.02492489 0.028120931 0.030420657 0.03276735

fc1.bias f4 [8]
00000000: bd8a 813f d285 813f 52b5 803f 8ec3 803f
00000010: 3787 813f 2fef 803f 8fdc 803f 1381 813f
1.0120465 1.0118964 1.0055335 1.0059679 1.0119389 1.0072993 1.0067309 1.0117515

fc2.weight f4 [1, 8]
00000000: 1a82 1c3d e16f 043d 5247 a53c d69c 8bbc
00000010: 0544 0a3d 49ca 92bc 8bba 8dbc 1063 e93c
0.038210012 0.03233326 0.02017561 -0.017042559 0.033756275 -0.017918723 -0.017300865 0.02848962
