models/best_embedding_net.pth (torch, 464034 bytes, 24 tensors)

layer1.0.weight f4 [64, 3, 3, 3]
000000 c6 e7 a9 3d 81 eb 64 bc e5 b8 ed 3c d9 72 63 3d
       0.082961604 -0.013972164 0.029018829 0.05552945
000010 61 01 6c 3c a9 f6 87 bd 81 a9 ac bc dc f6 f0 3b
       0.014404626 -0.066388436 -0.02107692 0.0073536467
000020 e9 83 96 3d 5f 26 db 3c 39 a1 03 3e 0c 60 56 3d
       0.073493786 0.026751695 0.1285447 0.05233769
000030 f7 3d 51 3d b8 6f c4 3d c6 ea b4 3d 02 7f c0 ba
       0.051084485 0.09591621 0.08833842 -0.0014686289
000040 30 1f 1d bd cf 77 33 3d 27 17 47 bc a3 58 94 bd
       -0.03835982 0.04381543 -0.012151516 -0.072434686
000050 69 b7 4b bd 35 9e 65 3c 02 d6 19 3c 96 61 c6 3d
       -0.04973546 0.01401477 0.009389402 0.09686582
000060 a3 10 98 3c 00 50 43 bd 59 f3 8a bc 49 8f 76 3d
       0.01856262 -0.047683716 -0.01696174 0.06019524
000070 61 33 9f bd d7 1a b1 3b fa c2 81 bd 29 a2 6c bd
       -0.077734716 0.005404811 -0.06336017 -0.057771835
000080 99 cd ba bd 26 70 b7 3c 85 78 13 bd 74 67 86 bb
       -0.09121246 0.022392344 -0.03600361 -0.004101688
000090 84 ad 20 3d c4 2e 13 bd a7 99 5b 3c b2 eb 78 3c
       0.039227977 -0.03593327 0.013403333 0.015192913
0000a0 71 f9 cb bc f8 66 40 bd a9 e4 44 bd 48 37 3f 3d
       -0.024899216 -0.0469732 -0.04806963 0.04668358
0000b0 49 8f 2b 3e e2 19 93 3b 41 04 cf bc 5a 64 1f bd
       0.16753878 0.0044891695 -0.025270583 -0.038914062
0000c0 f9 5d 67 bd 2d 78 96 bd b7 60 8a 3c bb 7a ac 3c
       -0.056486104 -0.073471405 0.01689182 0.021054616
0000d0 54 09 38 bd 8e 26 a4 bd 49 ae 24 bd 52 f8 2a 3d
       -0.04493077 -0.08015166 -0.040205274 0.041740723
0000e0 14 cc 05 bd 90 d3 d0 bd e3 9e 1c 3c fb 38 dc 3b
       -0.032665327 -0.10196602 0.009559366 0.00672066
0000f0 eb 56 74 3d 45 5c eb 3c 17 64 54 bd 38 b2 14 3e
       0.059653204 0.028730521 -0.051853266 0.1452111
000100 1c 3b 41 bd f1 d2 e1 3c 68 dc c8 bd 2e d7 db bd
       -0.04717551 0.027566405 -0.09807664 -0.10734402
000110 37 86 14 bb 5f fc eb 3d 66 18 00 3c 41 ef 9a 3d
       -0.0022663006 0.11522745 0.007818317 0.07565165
000120 f1 4b 12 bd e2 17 91 3d 59 55 28 3d ff e4 d9 3c
       -0.035716955 0.070846334 0.04109702 0.026598452
000130 80 fe 08 bc 5f 80 a8 bd 4f 46 a2 3c ba 31 59 3c
       -0.008361459 -0.0822761 0.019808916 0.013256485
000140 79 24 ca 3c a3 32 d1 bd 40 f8 b2 3c 30 50 27 3d
       0.024675595 -0.10214736 0.02184689 0.040847957
000150 83 6b 7b 3d 5f 6a b4 bc 48 cb 05 3e a9 b2 98 3c
       0.061381828 -0.022023378 0.13065827 0.01863988
000160 39 8a 3e bc 90 ea 08 3c 8c 5c 9c 3c de 21 c4 3d
       -0.011629635 0.008356705 0.019087099 0.09576772
000170 e2 4b 31 3d 2f f5 40 3d 36 1c 1c 3d a8 cf f0 3c
       0.043285258 0.047108825 0.03811284 0.029395893
000180 53 31 98 bd 2e 6b dd bd 88 d1 c6 bd d6 b0 6e 3d
       -0.07431283 -0.108114585 -0.09707934 0.058274113
000190 f1 b9 c6 bc 73 fa 52 3d 1e cc 98 3c 40 85 5f bd
       -0.024258586 0.05150838 0.018652018 -0.054570436
0001a0 5f 3e fc 3c 4b 60 85 bc 62 da b2 3d 68 e0 71 bc
       0.03079146 -0.016281268 0.087330595 -0.014762975
0001b0 b2 55 04 3e 1c 03 17 bc 6e 92 48 3d 2d e8 32 3d
       0.12923315 -0.00921705 0.04896777 0.04367845
0001c0 21 cf 64 bd 13 03 82 bd 84 09 7a bd fb 49 04 bd
       -0.055861596 -0.063482426 -0.06104423 -0.032297116
0001d0 55 a6 03 3d 50 11 2d 3c 1c 5c 75 3d 22 6c 69 bd
       0.03214105 0.01056321 0.059902295 -0.05698789
0001e0 44 25 cc bc 63 7c 68 3c 98 41 3b 3d 3b 18 e5 bc
       -0.024920113 0.014189812 0.045716852 -0.027965656
0001f0 d5 14 e2 bc 54 55 cf 3d 72 e3 05 3e 7c 9b 8b bd
       -0.027597824 0.10123697 0.13075045 -0.06816766
000200 b0 f3 70 bd b2 34 ee b9 5a 37 03 bd fb a1 e2 bc
       -0.05882615 -0.00045434159 -0.03203521 -0.027665129
000210 ca 99 ea bd 42 6d 6f 3c 77 af 53 3d 53 00 ba bd
       -0.11455114 0.014613451 0.05168101 -0.09082093
000220 5c 93 4d bb 0c 6d 9f bd d9 09 01 3d 4b 08 69 bd
       -0.003136835 -0.07784471 0.031503532 -0.056892674
000230 f0 2d 0e 3d 08 0f bf 39 4c 62 2b 3d d4 8e 85 bd
       0.03471178 0.00036441558 0.04184179 -0.06521383
000240 b5 d1 6e 3d 0e a7 3e 3d 50 13 f1 bc 5b 3e 89 bd
       0.05830546 0.046546035 -0.029428154 -0.067013465
000250 44 29 2b bd 24 a5 83 bd ce d1 96 bc b2 35 81 bc
       -0.0417874 -0.064279824 -0.01841059 -0.015772674
000260 4f 56 d9 3c 84 63 72 3c f2 c2 e8 3c 3c 77 b4 3d
       0.026530413 0.014794234 0.02841327 0.08811805
000270 68 e8 21 3d e9 1c ec 3d 05 bb 84 3c ed 91 83 3b
       0.03952828 0.11528952 0.01620246 0.0040151984
000280 39 27 15 3d 88 ce 6b 3d 8b 91 18 3c eb bf b3 3d
       0.03641436 0.05757001 0.009312044 0.0877684
000290 b7 fa e8 bd 3f 82 98 bb 1c 51 06 3d b7 74 18 3c
       -0.11375945 -0.0046541984 0.032792196 0.009305171
0002a0 26 55 0d bd 8e 3f 1c 3c 24 e7 28 3e 27 ec 50 3d
       -0.034505032 0.009536637 0.16494423 0.051006462
0002b0 5d d6 ae bc 0c 65 6b bd cb 4f ac bc 97 60 70 3d
       -0.02134245 -0.057469413 -0.021034142 0.058685865
0002c0 e7 d3 db 3b 56 14 b5 bd 4a 2b 6d bc 3e 48 32 bd
       0.0067086103 -0.088417694 -0.014475653 -0.043525927
0002d0 68 60 6c 3d ab 68 a5 bd f7 4c 12 bd 1e 08 07 3c
       0.057709128 -0.080766045 -0.03571793 0.008241681
0002e0 6f b1 a1 bd f3 28 56 bc ff 15 32 3d b0 b2 99 3d
       -0.07895171 -0.0130712865 0.04347801 0.07504785
0002f0 03 8b 1c 3c 1f bc 6b bd 54 09 e9 bc 79 74 05 3e
       0.009554627 -0.057552453 -0.02844683 0.13032712
000300 c2 86 6f bd 4d 70 a0 3d 17 7d 8d bd e9 4a 8b 3c
       -0.058478124 0.0783392 -0.069086246 0.017003493
000310 1f ed 85 bb 21 bb 14 3c 87 e5 29 3c d6 02 75 bd
       -0.004087105 0.009077818 0.010369665 -0.059817158
000320 52 1b 03 bc 95 73 ce 3d c8 ae 85 3d 35 40 9e bd
       -0.008002119 0.10080639 0.065274775 -0.0772709
000330 ac 02 f0 bc b3 e0 80 bd 3c 7d 06 bb 43 67 0e bc
       -0.029298149 -0.06292858 -0.0020521423 -0.008691612
000340 f4 8f 8e 3b fb 0c 0e bd 4a c4 9c bc 6b 86 ed bc
       0.0043506566 -0.034680348 -0.019136567 -0.02899476
000350 52 78 21 bc 7c d6 c3 3c ca 90 8f 3c 19 18 bd 3d
       -0.009855347 0.023905985 0.017525095 0.09233112
000360 a3 03 4b bc dd 11 83 3d c6 1b 1c 3d 52 46 9b bd
       -0.012391004 0.063998915 0.038112424 -0.07581772
000370 f2 7b 08 bd ac e7 4b bd ee 18 34 3d 0b 5c 7d bd
       -0.03332133 -0.049781486 0.043969087 -0.061855357
000380 fa 1e 12 be 10 d7 52 3c fa eb 97 3d 07 dd 48 3d
       -0.14269629 0.012868658 0.07418056 0.049038913
000390 b6 a4 af 3d 7f 77 f0 bc 7b f0 8b 3d dd b8 93 bd
       0.08576338 -0.029353855 0.068329774 -0.07212994
0003a0 31 d7 ed bb fd 93 83 3b 92 b3 08 3d 9c af 26 bd
       -0.007258319 0.0040154443 0.033374377 -0.040694818
0003b0 79 23 fc 3d fe 08 b4 3d b4 9d bd bd ca 49 e4 3c
       0.12311453 0.087907776 -0.09258595 0.027867217
0003c0 1d d8 fb bc e7 89 b8 3d 87 05 a8 bc 3f b4 23 be
       -0.0307427 0.09010678 -0.020510448 -0.15986727
0003d0 aa 00 ef bc a0 97 88 bb 9a 81 00 be 81 e5 cf 3c
       -0.029175121 -0.0041684657 -0.12549439 0.02537799
0003e0 a6 61 24 3d 39 72 11 3d ee bd 42 3c bd 55 01 3c
       0.040132187 0.03550932 0.011886103 0.007893977
0003f0 12 ad b3 3c 99 fa 09 3d d5 f9 12 bd ef 8e 11 be
       0.021933112 0.033686254 -0.03588279 -0.14214681

layer1.0.bias f4 [64]
000000 e4 28 94 b7 bd c1 6a 37 fc e3 fd b8 7d d1 51 b7
       -1.7662016e-05 1.3992595e-05 -0.000121064455 -1.2506146e-05
000010 4c 95 c8 b9 99 11 70 38 49 6d 57 b8 60 5c dc 39
       -0.00038258207 5.7236848e-05 -5.1361774e-05 0.00042030495
000020 88 b3 1f b7 82 cf 6d b8 fc e4 a6 b7 70 4c da b8
       -9.518939e-06 -5.669846e-05 -1.9895371e-05 -0.00010409288
000030 c5 d0 d3 b8 7a 41 b4 b8 ee fc 2f b7 10 9f c5 37
       -0.000101001504 -8.595265e-05 -1.0489703e-05 2.35583e-05
000040 41 06 d0 38 66 3c 8b 38 6e c1 59 38 ca 45 22 b8
       9.919378e-05 6.6392866e-05 5.1916977e-05 -3.8688806e-05
000050 ad 1c 30 b8 86 12 73 37 59 4e 92 b8 38 5f 89 37
       -4.1988376e-05 1.44882415e-05 -6.976416e-05 1.6376012e-05
000060 6b a2 6e b9 c9 0e 5a 37 55 23 b0 b6 00 d9 82 39
       -0.00022757954 1.2997255e-05 -5.249322e-06 0.0002495721
000070 ca 0b a7 35 83 37 32 b8 f8 45 97 37 3b 62 88 b7
       1.2445901e-06 -4.2490206e-05 1.8033184e-05 -1.6258206e-05
000080 11 1e c7 38 b9 eb 89 b7 d4 ae e0 b7 c8 02 97 37
       9.49466e-05 -1.644144e-05 -2.6784292e-05 1.8001898e-05
000090 76 c6 b9 b7 38 0c 80 38 00 69 ef 38 a8 77 55 b9
       -2.2146134e-05 6.1057915e-05 0.00011415966 -0.00020357838
0000a0 94 07 61 37 8f 52 bc 38 86 10 62 b9 d1 53 cc 38
       1.34128095e-05 8.979916e-05 -0.00021559195 9.74309e-05
0000b0 8e 01 85 b8 43 b0 b1 b6 5c 9d e0 37 7f e3 14 39
       -6.342224e-05 -5.2955306e-06 2.6776157e-05 0.00014199129
0000c0 3f f6 10 39 af 4a 3b 38 15 e0 7e b7 18 17 dc 35
       0.00013824644 4.465383e-05 -1.5191753e-05 1.6397998e-06
0000d0 4c 93 2d 38 60 16 24 b6 65 1d f9 b5 33 6c 9c 38
       4.1383595e-05 -2.4450928e-06 -1.8560501e-06 7.458813e-05
0000e0 c0 36 c8 37 2b d8 65 37 a7 ca fd 38 3e e0 10 b8
       2.3867353e-05 1.3699794e-05 0.00012101727 -3.4541117e-05
0000f0 55 15 17 b8 2c d3 e7 b8 54 8c 48 37 ab d4 08 39
       -3.6021072e-05 -0.00011054272 1.1953602e-05 0.00013049196

layer1.1.weight f4 [64]
000000 7b 15 7e 3f 15 34 7f 3f d9 b5 80 3f 6c fa 7f 3f
       0.99251527 0.99688846 1.0055496 0.9999149
000010 46 96 81 3f 2b 36 80 3f 0c 93 80 3f 42 69 81 3f
       1.0123985 1.0016531 1.0044875 1.0110247
000020 4a af 7d 3f 05 82 7e 3f 31 5d 80 3f 48 81 7f 3f
       0.99095595 0.99417144 1.002844 0.9980664
000030 65 6e 80 3f 64 46 80 3f 82 53 80 3f 5c 54 7f 3f
       1.003369 1.0021482 1.0025485 0.997381
000040 06 e8 7f 3f 7c 3c 80 3f fc 5a 7f 3f b3 e8 7e 3f
       0.99963415 1.0018458 0.99748206 0.9957382
000050 3a 92 7e 3f 59 d4 7f 3f 64 ce 7e 3f dc 96 80 3f
       0.99441874 0.9993339 0.9953368 1.0046039
000060 90 f0 7d 3f c1 5c 7f 3f 43 b8 7f 3f 19 c7 7f 3f
       0.99195194 0.99750906 0.99890536 0.99913174
000070 4e 28 80 3f 88 e8 7f 3f 6a 40 80 3f b9 69 7d 3f
       1.00123 0.9996419 1.0019658 0.98989445
000080 a5 30 80 3f a9 ef 7c 3f b6 51 80 3f 20 c3 7e 3f
       1.0014845 0.9880319 1.0024936 0.9951649
000090 99 be 7f 3f 8f f0 7f 3f 41 8f 80 3f 47 ed 7e 3f
       0.99900204 0.9997644 1.0043718 0.99580806
0000a0 46 e4 7f 3f 43 f3 7e 3f 12 46 80 3f 18 80 80 3f
       0.9995769 0.9958994 1.0021384 1.0039091
0000b0 d0 1c 7e 3f 13 ee 7e 3f a3 51 7f 3f ef 8e 80 3f
       0.99262714 0.9958202 0.9973394 1.004362
0000c0 2d 80 81 3f 78 50 80 3f 9d 7b 7e 3f 60 9c 7f 3f
       1.0117241 1.0024557 0.9940737 0.99847984
0000d0 14 22 81 3f e0 91 7f 3f c9 63 80 3f d8 cc 7e 3f
       1.0088525 0.9983196 1.0030452 0.99531317
0000e0 c3 ee 7f 3f 4e 01 80 3f 8a a7 7f 3f e0 9e 80 3f
       0.99973696 1.0000398 0.9986502 1.0048485
0000f0 7d 49 80 3f a9 29 80 3f 97 a8 7e 3f e3 3e 80 3f
       1.0022427 1.0012714 0.99476 1.0019192

layer1.1.bias f4 [64]
000000 d6 3c db 3a 59 c2 dc ba 21 2c cc 3b 8b c7 e5 3a
       0.0016726505 -0.0016842588 0.0062308465 0.0017530782
000010 b0 56 64 3c 3d c6 d0 bb 0e 4d e0 3b 91 74 eb 3b
       0.013936684 -0.006371288 0.006845123 0.0071855267
000020 d5 58 53 ba 22 bf 2b bb 50 a7 00 3b ff 2d c3 bb
       -0.0008062248 -0.0026206453 0.0019630976 -0.005956411
000030 bd 33 0b 3c 7d 33 1c 3c a6 39 21 3a 94 72 ff 3b
       0.008496222 0.00953376 0.0006150253 0.007795641
000040 92 ae 8a bb 49 e1 c8 bb b6 1e 27 bc 73 15 cd bb
       -0.004232236 -0.0061303717 -0.010200193 -0.0062586605
000050 cb be a6 bb 23 00 62 3c 1c c4 3e bb d9 37 57 bb
       -0.0050886623 0.013793978 -0.002910859 -0.0032839684
000060 66 ee 1b bb 30 b9 14 bc 59 ff 36 39 ef 83 c6 3a
       -0.002379322 -0.009077355 0.00017451997 0.001514552
000070 c3 5c 66 bb f2 72 25 bb f6 d4 46 bb 02 c6 09 bc
       -0.0035150505 -0.0025245515 -0.0030339337 -0.008409025
000080 86 6e dc bb f1 44 51 bc 97 a0 af 3b 2a 52 19 bc
       -0.0067270426 -0.012772785 0.00535972 -0.009357968
000090 a2 f2 84 bb a9 72 36 3a 02 6f 2c 3c 68 0d dc bb
       -0.0040572444 0.0006959835 0.010524513 -0.0067154653
0000a0 42 57 c7 3b ad 2f ab b8 1a 4b c4 ba 5c 6d 11 3c
       0.0060834 -8.162796e-05 -0.0014975995 0.008876171
0000b0 0f f3 47 bc 9c 90 2d 3c 01 50 02 bc 94 17 cf 3b
       -0.012203946 0.01059356 -0.007953645 0.0063199494
0000c0 03 60 41 3c f4 02 52 3a 41 cc 35 3a 72 46 03 3b
       0.011802676 0.00080113043 0.0006935038 0.0020031002
0000d0 d7 2f c1 3b de c7 c1 ba 50 f7 5a 3b 3c 80 48 bb
       0.0058955955 -0.0014784297 0.003341157 -0.0030594012
0000e0 11 b6 a4 bb 59 ae a3 bb 46 07 e2 ba 5d 24 23 3b
       -0.005026587 -0.004995149 -0.0017244599 0.00248935
0000f0 20 f2 8e bb c3 03 c3 3b 96 16 13 bc 9b 50 90 3a
       -0.0043623596 0.005951376 -0.008977553 0.001101035

layer1.1.running_mean f4 [64]
000000 bb ba 17 3e dc 95 0d be a4 1b 1d 3d 65 da bb 3d
       0.14817326 -0.13826698 0.03835644 0.09172515
000010 b7 38 ec bb c5 fb a9 3d f9 4a 3b 3a 52 52 6c 3b
       -0.0072089094 0.08299974 0.00071446557 0.003605981
000020 11 f6 88 3d b1 59 fb 3d af f8 fe 3d 4c b4 ba bd
       0.066875584 0.12272967 0.124497764 -0.0911642
000030 33 03 87 3d 3a 4b 00 3e 8d 3d 06 3d ac 4f da 3d
       0.06592407 0.12528697 0.032773543 0.106597275
000040 2b 65 96 bd 20 17 dd 3d 0c 9c ba 3c 33 03 95 bd
       -0.07343515 0.10795426 0.022779487 -0.07276001
000050 cb 15 0e be cf aa 96 3d 87 c1 53 3d ab e5 75 bd
       -0.13875501 0.07356798 0.051698234 -0.06003348
000060 d0 ec b2 3d d3 73 31 be d1 38 f7 3d be 5a b1 bc
       0.08736575 -0.1732934 0.12071384 -0.021649715
000070 42 00 01 3e 14 52 79 bd 3a 13 63 bd e2 c4 7a bd
       0.12597755 -0.06086929 -0.055438258 -0.06122292
000080 4b 15 06 3d 64 2a 61 be 3c e6 93 bd f8 a0 6f bd
       0.03273515 -0.21988827 -0.07221648 -0.05850312
000090 11 61 01 be 22 76 6e bd d0 75 2f bc 54 06 82 3d
       -0.12634684 -0.05821813 -0.010709241 0.06348863
0000a0 96 13 2d be fb 39 50 bb ec a0 c3 3c 52 a2 f7 3c
       -0.16902003 -0.003177284 0.023880444 0.030228768
0000b0 2b c5 17 3e dc 2f 26 3e 19 40 ab 3d 3d 2f 41 3b
       0.14821307 0.16229194 0.08361835 0.002947762
0000c0 c5 16 85 3d 0a b0 da 3d 83 58 3a bd 8a fc c8 bd
       0.064984836 0.10678108 -0.045494568 -0.09813793
0000d0 44 e4 00 be 44 0a 76 3e b8 33 a7 3c f3 3a a1 3d
       -0.12587076 0.24027354 0.020410404 0.07872572
0000e0 30 c5 d3 bd 98 2b 8b bd 19 74 a2 bd 59 6c 07 bd
       -0.10340345 -0.06795424 -0.079323 -0.033062313
0000f0 96 f1 8a bd 2a 1b 58 bd 32 05 80 be 94 a4 23 3d
       -0.0678436 -0.05276028 -0.25003964 0.039951876

layer1.1.running_var f4 [64]
000000 85 2a 96 3e 20 2a 0d 3e 6f 5e 60 3c 94 8f 94 3d
       0.29329315 0.137856 0.01369439 0.07253948
000010 04 a7 85 3b 44 4b b0 3c 4b a2 6a 3b 82 7b 18 3a
       0.0040787477 0.021520264 0.00358023 0.0005816744
000020 f2 f7 00 3d ec 96 a1 3d 1c f1 45 3e ac b0 36 3d
       0.03148646 0.07890114 0.19330257 0.04460208
000030 99 da 45 3d d7 55 22 3e fd 26 71 3b 37 70 84 3d
       0.048304174 0.15853058 0.003679692 0.06466716
000040 44 c8 70 3d 71 e6 e6 3d 90 7f 91 3c 3c 35 d5 3c
       0.05878474 0.11274422 0.017761022 0.02602636
000050 e9 41 19 3e ca ba 17 3d 65 60 a9 3c 6a ec a1 3d
       0.14966549 0.03704337 0.020675847 0.079064205
000060 85 57 49 3d 1f 91 66 3e 5e fe ee 3d 28 e0 47 3c
       0.04915573 0.22516297 0.116696104 0.012199439
000070 6d d3 a7 3d 02 91 29 3d a1 55 37 3d c0 3f 40 3d
       0.08194623 0.041398056 0.044759396 0.046935797
000080 cd b7 b6 3c 39 2f c0 3e 6e 4e 8e 3d 1c 2d 01 3d
       0.02230444 0.37536028 0.06948553 0.03153716
000090 8a 4b 5d 3e 58 f7 80 3c 72 50 92 3c 72 1d 02 3d
       0.21610847 0.015742943 0.017860625 0.031766362
0000a0 68 23 89 3e 0f 1b 26 3b d9 3d 9c 3b 97 ab d1 3b
       0.26784825 0.0025345718 0.004768115 0.006398629
0000b0 fa ca 18 3e 27 27 69 3e d9 05 d9 3d c4 af af 3b
       0.1492118 0.22768842 0.105968185 0.005361529
0000c0 ee 1e bb 3c fe e4 ff 3d b8 90 d1 3c ea 1d 00 3e
       0.022841897 0.12494849 0.025581703 0.12511411
0000d0 fb 25 d7 3d 10 cb 12 3f b7 1e ac 3b 27 36 3d 3d
       0.10505291 0.573411 0.005252685 0.04619422
0000e0 7a 2c fd 3d c1 ae 93 3d d0 e6 55 3d 19 ad 4d 3c
       0.12361999 0.07211066 0.052222073 0.012553477
0000f0 4d 32 0d 3d e8 1b da 3c 83 5a 04 3f 4c c9 5c 3c
       0.0344718 0.026624635 0.5170061 0.013475727

layer2.0.weight f4 [64, 64, 3, 3]
000000 fd a0 f7 bc 66 73 c0 3d cd 6c 07 3e ce cd 7f 3d
       -0.030228132 0.093970105 0.13225098 0.06245213
000010 d9 4c c2 bc 17 c4 88 3a 94 35 ae 3a f0 eb 42 bd
       -0.023718284 0.0010434416 0.0013291114 -0.04758829
000020 f2 e2 11 bd ed df 18 bb 97 39 84 bd 90 92 89 bd
       -0.035616823 -0.002332683 -0.06456297 -0.06717408
000030 8e ea a0 3c e8 fa c6 3d 08 a0 3b 3d 18 60 ec bc
       0.019643094 0.09715825 0.045806915 -0.028854415
000040 8e fa b8 3c 43 0e 10 bd 0e 8e 09 bd 7d c8 cc bd
       0.022580411 -0.03516985 -0.03358274 -0.099991776
000050 24 98 f1 bd 2d 79 75 3d 2f 76 bf 3d 3d da 16 3d
       -0.11796597 0.059930015 0.093487136 0.036829222
000060 73 5c 80 bb f5 9d 01 3c 29 c6 81 3d b2 51 4e 3d
       -0.003917271 0.007911195 0.06336624 0.05037088
000070 68 50 a8 bd fa 04 de bc 0f 58 08 bd ae 18 9c 3c
       -0.08218461 -0.027101982 -0.033287104 0.019054737
000080 3c da ec bc 5a cc a6 3c d0 98 64 3c 78 3e 1d 3d
       -0.028912656 0.020361114 0.013952449 0.038389653
000090 a6 ac ab bb 1f 1d 81 39 02 fb 79 bd a8 34 aa 3c
       -0.005239087 0.00024626494 -0.061030395 0.020777062
0000a0 58 71 ca 3d a4 8d f2 3d a7 31 2a 3d ae 4d fb bd
       0.098849 0.11843422 0.04155126 -0.122706756
0000b0 ad e4 08 bd df 61 b5 3d 73 42 0b 3d 47 d6 a5 b9
       -0.033421207 0.08856558 0.033998918 -0.00031630902
0000c0 b6 75 81 bc cb 27 fd 3d 9b 5c f1 bc 91 cd a8 3b
       -0.0158032 0.123611055 -0.029463103 0.0051514586
0000d0 ef 38 48 bd 1a b8 ad 3d b9 89 53 3d 9f 64 55 bd
       -0.04888242 0.0848238 0.051645014 -0.052097913
0000e0 70 31 f2 3d 53 90 bf bc 55 57 76 bd f1 ab 8f bc
       0.11825836 -0.023384249 -0.06014188 -0.017538043
0000f0 b6 53 56 bc e6 24 97 bd 7f 76 23 bd d8 2b f5 bd
       -0.013081482 -0.07380085 -0.03990793 -0.11971253
000100 ad 3e 63 bd b2 1f 17 bd d4 08 15 bc 0e bd a6 bc
       -0.055479694 -0.03689546 -0.009096343 -0.02035382
000110 a8 ce 07 3d 83 42 9d bc 83 76 ee 3d 48 22 da bd
       0.033156067 -0.019196754 0.11643698 -0.1065107
000120 44 8e 6b bd c9 79 0c bc d8 43 84 bc 2e 15 c9 3d
       -0.057508722 -0.008573958 -0.016145632 0.09818493
000130 58 fc 4e 3d e9 00 df bc 71 12 98 bd 4c 7f 6e 3d
       0.050533623 -0.027222114 -0.074253924 0.05822687
000140 34 05 38 3d 21 2b 1c 3e 30 f6 d6 3c ec 95 d7 3d
       0.044926837 0.15250827 0.026240438 0.10526642
000150 ec d6 1c bd 10 3f ce 3d d8 f3 fc bc dc 0e 1b bd
       -0.038290903 0.10070622 -0.030877993 -0.037855968
000160 85 3e 80 bb 02 f5 85 3d b3 9c 43 bd 2e 78 ed 3c
       -0.003913703 0.06540872 -0.047756862 0.02898797
000170 3a bc 43 bc a0 2d 86 bd 5a b0 a7 3c ae 99 b4 3d
       -0.011946732 -0.06551671 0.020469833 0.088183746
000180 e5 2f 1b bd ca eb 78 3c d5 06 1a 3c b9 cd 97 3d
       -0.037887473 0.015192935 0.009401043 0.07412285
000190 eb e2 86 3c 28 dd 92 3d ab e3 0d be 48 28 ce bd
       0.016465625 0.071710885 -0.1385638 -0.10066277
0001a0 76 b3 d2 3d 25 bc 25 3c f7 e1 b8 3b 2a 64 1b 3d
       0.10288136 0.010115658 0.0056421715 0.03793732
0001b0 55 95 9d 3d 8a 92 af 3b ae 3e 8a 3b 52 ed bc 3c
       0.076944984 0.005358045 0.004218898 0.023062382
0001c0 32 bd 82 bd f3 0c 85 3d 59 79 ae b9 01 d6 4c 3d
       -0.063837424 0.064966105 -0.00033278277 0.050008778
0001d0 af 04 e3 bc 1f fc 39 3d 3c d9 62 bc 79 b2 a4 bd
       -0.027712194 0.045406457 -0.013845738 -0.080418535
0001e0 12 9d 72 bd f1 01 69 3d f1 88 2a bd 47 85 83 3c
       -0.059231825 0.056886617 -0.041634504 0.016054763
0001f0 3f f8 29 be 12 9f a2 3c d6 1a a8 ba 2e e0 be 3d
       -0.16598605 0.019851241 -0.001282538 0.09320103
000200 26 1d a5 bb 1d 7b 9f bc c8 0c c1 bc 87 89 ec 3c
       -0.005038875 -0.019467885 -0.023565665 0.028874172
000210 e1 b4 b3 bc 59 34 ca bc 6a c9 83 bc b5 71 15 3d
       -0.021936836 -0.024683164 -0.016087253 0.036485393
000220 42 96 df bc f4 d6 b4 3c 5a f2 19 3d 37 f7 7c bd
       -0.027293328 0.022075154 0.03758464 -0.0617592
000230 3f 80 1b 3d bb 5e c7 bc af 24 26 bd bd 74 be bc
       0.037964102 -0.024337163 -0.040562328 -0.023249025
000240 ad c0 36 bd ef 81 33 3c 52 95 c9 3d 05 13 1d 3d
       -0.044617344 0.010956272 0.09842934 0.038348217
000250 0d ad 85 3b 1d 9b 4b 3d 7b 9f b2 3c 4e 90 11 bd
       0.004079467 0.049708474 0.021804562 -0.03553801
000260 25 24 70 bc ae 8b e1 3c 8c 02 53 3d e5 e4 df 3d
       -0.014657055 0.027532425 0.0515161 0.1093233
000270 03 61 bb 3d 58 e8 77 3c c3 f8 3d bd 85 f2 63 bd
       0.09149363 0.015131079 -0.046379816 -0.055651207
000280 1b 00 7a 3b 2b 90 a2 bd 08 9f f7 bc 27 78 6f 3d
       0.0038147036 -0.07937654 -0.0302272 0.058464196
000290 a3 58 d8 3d 4f 60 62 bc 01 96 22 3c e0 ea cc bd
       0.10563781 -0.013816907 0.009923459 -0.10005736
0002a0 35 b7 70 bc 3a 82 9d bc 43 ba 29 3d bc 66 62 3c
       -0.014692117 -0.019227136 0.0414374 0.013818439
0002b0 fa 49 af bd 8f 15 bc 3c b7 04 12 3b e1 c8 82 bd
       -0.08559032 0.022959499 0.0022280642 -0.06385971
0002c0 a5 16 ad bd 58 0f 79 bd 24 1d 04 3d 2c 00 9c bd
       -0.08451585 -0.06080565 0.032254353 -0.0761722
0002d0 6a b0 7a 3d 19 cd 41 3d c8 df 1f bb e1 e8 46 bd
       0.061203398 0.047314737 -0.0024394859 -0.048561934
0002e0 93 a6 07 be 67 ae 23 3d 08 8c c1 bd 4a d2 fd 3b
       -0.13247137 0.039961245 -0.09450537 0.0077460157
0002f0 06 ea 8b 3b 7a eb ef 3c 4e a5 00 3d 41 fc 4f 3c
       0.004269841 0.029287089 0.031407647 0.012694419
000300 47 2c 57 bc 36 20 ba bd 6c 9d f4 3c 8b 4f be bc
       -0.013133115 -0.09088175 0.02986022 -0.023231288
000310 e3 c9 d0 bc 67 5f 86 bd b1 45 98 bd 6e be be bd
       -0.025486892 -0.06561165 -0.074351676 -0.09313665
000320 db cd 9c bc 7c ad d3 bc e5 ca d1 bd a9 1c 85 bd
       -0.019141128 -0.02583956 -0.10243777 -0.06499607
000330 c1 5b af bc 11 8f 80 3d 2c f2 e0 bb 84 87 28 3d
       -0.021406056 0.06277288 -0.0068648066 0.041144863
000340 c7 73 fc bd 17 39 23 3d b2 be 5c bc 04 e8 ef bc
       -0.1232677 0.039849367 -0.0134732 -0.029285438
000350 2a 41 94 bd b6 02 01 be 6f 78 f2 bd ed 9d a2 3d
       -0.072389916 -0.1259869 -0.11839377 0.07940278
000360 0e 6e 96 bc df ef 43 3d 45 d5 74 3d d9 2c 90 bd
       -0.018363025 0.04783618 0.059773702 -0.07039804
000370 a7 00 c2 bc 00 ab de bd 25 17 91 3d bf 30 b1 bd
       -0.023681952 -0.108724594 0.070844926 -0.08651876
000380 40 ac b5 3c 6a 9b 6a 3d f8 5d e8 bd 59 ae 64 bd
       0.022176862 0.05727712 -0.11346048 -0.055830333
000390 8a fa 9b 3d 0e 23 87 bd 81 05 d9 bc 90 e6 cd bd
       0.07616146 -0.06598483 -0.026491882 -0.10053742
0003a0 41 7b 39 bd b7 84 d6 bd 8d 76 43 3c e8 f0 6c bd
       -0.04528356 -0.10474532 0.01193012 -0.057846934
0003b0 43 69 30 bd 51 8d 0d 3d 04 ca 3f be 6c 0d 87 3d
       -0.043069135 0.034558598 -0.18729407 0.06594357
0003c0 29 5b 33 3a 30 d4 58 3d 8f 5e 85 bd cd 07 76 bd
       0.0006841892 0.052936733 -0.06512176 -0.060066033
0003d0 5f ca 2d bd b1 57 e7 bc 83 47 a2 bd 45 16 ff bc
       -0.042429324 -0.028240057 -0.07923796 -0.031138549
0003e0 33 8a d5 3c 6f 69 15 bc 58 16 e3 bc 15 1e b0 3d
       0.026066875 -0.009119376 -0.027720615 0.08599488
0003f0 bc be 4b be 2f d0 2c 3b e5 8f 9c 3d 95 63 44 3a
       -0.19896978 0.0026369204 0.07644633 0.00074916455

layer2.0.bias f4 [64]
000000 d4 e2 ab b6 02 b2 04 37 ac 13 0d b6 a5 e7 91 b7
       -5.1226034e-06 7.909259e-06 -2.1022088e-06 -1.7393215e-05
000010 75 4a bf b4 2e 8f fb b5 d2 1c 8c 36 cc 1a 9c 36
       -3.5630697e-07 -1.8742628e-06 4.1756803e-06 4.652282e-06
000020 f2 9c b4 36 3e bf e2 b5 0b 5e 11 b6 91 cb c1 b6
       5.382689e-06 -1.6893971e-06 -2.1661424e-06 -5.7755465e-06
000030 6b af ba b6 42 ba 9f 36 39 7b b0 b5 e3 f7 44 b6
       -5.5636533e-06 4.7602525e-06 -1.3148884e-06 -2.9350565e-06
000040 5f 94 6e b6 66 67 37 b7 1b 37 93 36 42 62 02 b7
       -3.5551127e-06 -1.0931724e-05 4.3873565e-06 -7.771481e-06
000050 96 e6 21 37 a6 70 aa b6 6a 9c 4a b6 62 1c 12 b5
       9.650035e-06 -5.079509e-06 -3.019139e-06 -5.443054e-07
000060 36 8b 28 b6 4e d2 da 36 c4 95 7d 35 04 4c 9b 36
       -2.5114982e-06 6.521389e-06 9.446778e-07 4.6282094e-06
000070 18 e9 f5 b5 16 5a d6 36 5a 5d 93 37 75 05 7a 34
       -1.8321762e-06 6.3881844e-06 1.7567236e-05 2.328505e-07
000080 b8 dd f1 35 38 38 14 b7 5e c7 96 34 8e 5b f3 36
       1.8020428e-06 -8.834577e-06 2.8084736e-07 7.2526227e-06
000090 bd a5 c6 36 9c 7f ad b6 da cf 7e 36 bf 51 da 36
       5.9201543e-06 -5.1706575e-06 3.7969935e-06 6.506423e-06
0000a0 68 ba a0 35 63 e7 36 37 f8 9a 25 b5 32 0b 1e b5
       1.197518e-06 1.0901919e-05 -6.16928e-07 -5.887588e-07
0000b0 55 9a 09 b7 11 c4 68 37 0a 1f ad b4 7c ad 17 35
       -8.20177e-06 1.3873928e-05 -3.2246345e-07 5.6504336e-07
0000c0 74 52 e4 35 ee f3 b8 b6 0f 85 11 36 46 90 00 37
       1.7011321e-06 -5.5120245e-06 2.1684134e-06 7.662986e-06
0000d0 f1 62 df b6 04 cb 4a 36 62 85 76 36 88 d2 13 36
       -6.657436e-06 3.0218516e-06 3.6734496e-06 2.2027252e-06
0000e0 2e e8 16 37 b0 07 62 b6 44 d1 16 b6 df 4a 16 b6
       8.994755e-06 -3.36811e-06 -2.247355e-06 -2.2395323e-06
0000f0 27 01 a9 b6 9e 63 9f 36 62 b6 11 b6 65 f0 e7 35
       -5.0367266e-06 4.750166e-06 -2.1712845e-06 1.7280805e-06

layer2.1.weight f4 [64]
000000 75 ab 80 3f a2 f9 7f 3f 73 d4 7f 3f 18 7c 7e 3f
       1.0052325 0.99990284 0.99933547 0.994081
000010 26 27 7e 3f dc 8d 7e 3f 7e c6 7e 3f 3a 80 80 3f
       0.99278486 0.9943521 0.99521625 1.0039132
000020 5b 07 80 3f 7a 4a 7d 3f ea f7 7f 3f 25 a1 80 3f
       1.0002245 0.9894177 0.9998766 1.0049177
000030 79 35 7e 3f e7 bb 7f 3f 4a 24 7d 3f 01 1e 80 3f
       0.9930034 0.9989609 0.988835 1.0009156
000040 53 cb 80 3f 4b 97 80 3f b4 8e 80 3f 66 a0 7e 3f
       1.006205 1.0046171 1.004355 0.994635
000050 f7 2d 81 3f 85 c8 7e 3f 5e 65 7f 3f 1a 52 7d 3f
       1.0092152 0.9952472 0.9976405 0.989534
000060 1e 3b 80 3f 77 ba 7f 3f 2a 79 7f 3f 38 b9 80 3f
       1.0018041 0.998939 0.99794257 1.0056524
000070 6e 87 7e 3f d7 a6 80 3f 57 c2 7f 3f 1a 65 82 3f
       0.994254 1.0050915 0.99905914 1.0187104
000080 6f 69 80 3f bb 1e 7e 3f 7c 70 7d 3f 71 97 7f 3f
       1.0032176 0.9926564 0.9899976 0.99840456
000090 7a c9 7e 3f c5 9a 7e 3f 14 18 80 3f 0f b9 80 3f
       0.9952618 0.9945491 1.0007348 1.0056475
0000a0 e6 00 80 3f 8e 7f 7d 3f 3a 32 80 3f bc 12 81 3f
       1.0000274 0.9902276 1.0015328 1.0083842
0000b0 97 08 80 3f 61 bc 7d 3f e2 06 81 3f 02 19 80 3f
       1.0002621 0.9911557 1.0080225 1.0007632
0000c0 05 7c 80 3f 83 20 80 3f 6f 50 80 3f 9f 09 81 3f
       1.0037848 1.0009922 1.0024546 1.0081061
0000d0 84 a3 7e 3f 32 5a 7d 3f 47 62 80 3f 05 70 80 3f
       0.99468255 0.9896575 1.0029992 1.0034186
0000e0 05 c5 80 3f 17 7b 80 3f 8c d3 7d 3f c5 ee 80 3f
       1.0060126 1.0037564 0.9915092 1.0072867
0000f0 3f 74 81 3f eb d6 7d 3f ef 49 7f 3f 8e 6f 80 3f
       1.01136 0.99156064 0.9972219 1.0034044

layer2.1.bias f4 [64]
000000 c1 47 98 3b 58 e6 08 bc ee d4 3e bb 46 e9 42 bc
       0.0046472256 -0.0083556995 -0.0029118615 -0.011896437
000010 7b de 5d bc cd 1c 81 3b 9b 87 e4 bb 2d 8c 16 3c
       -0.013541813 0.003940201 -0.0069741732 0.009188694
000020 98 51 38 3b 6b 0c 12 bc b9 1e 40 39 62 a9 12 3c
       0.0028124806 -0.0089140935 0.00018321992 0.008951517
000030 28 3c f5 bb 50 28 8f ba 9d a6 37 bc 1f 1b 19 3c
       -0.007483978 -0.0010922048 -0.011209157 0.009344845
000040 72 f7 a4 3b 4e e4 b1 3b 53 3f bb 3b 2b 4a 12 bb
       0.0050343806 0.0054288274 0.005714336 -0.002232204
000050 0a 17 a9 3b 35 44 cc 3a 33 4a 8d ba 8b 51 32 bc
       0.005160217 0.0015584292 -0.0010779559 -0.010883699
000060 c8 15 01 bc ab 72 1e 3c 21 99 f1 ba c8 e0 0c 3c
       -0.007878728 0.009670894 -0.0018432477 0.008598514
000070 9d e1 ff bb ef d5 30 3c 89 79 a0 3b f6 b4 33 3c
       -0.0078088776 0.010793193 0.0048973006 0.010968437
000080 5e 83 8c 3a dc 27 9f bb 5d ca 03 bc 5a 5d a9 ba
       0.0010720303 -0.0048570465 -0.008043853 -0.0012921498
000090 c6 66 a6 bb 53 c1 fc bb 39 0b c4 3b 0f 0e 2d 3c
       -0.0050781695 -0.0077134757 0.005982783 0.010562434
0000a0 92 f5 73 3b fb 35 9b bb f1 fa 0a 3c 3a 87 0d bc
       0.0037225229 -0.0047366596 0.008482681 -0.008638198
0000b0 6b ec 26 3c 22 15 b0 bb 6e 02 4b 3c fe 2a d8 3a
       0.010188202 -0.005373613 0.012390716 0.0016492305
0000c0 9a c9 a3 bb 1c 07 9a 3b 47 75 07 bc 0e 8e 5a 3c
       -0.004998398 0.0047005545 -0.008267707 0.013339533
0000d0 65 41 34 3a 9a 9a 06 3c 0b 20 5a 3b 35 d0 c6 3b
       0.00068761996 0.008215571 0.003328326 0.0060673007
0000e0 39 8a 3b 3c c1 92 a1 bb b7 84 c9 3b 75 40 6b 3c
       0.011446529 -0.0049308245 0.006149854 0.0143586295
0000f0 24 6d 7a 3c 18 40 a6 bb 07 5f f2 b9 73 2c 0e 3c
       0.01528481 -0.0050735585 -0.00046228638 0.00867759

layer2.1.running_mean f4 [64]
000000 eb 3a 34 bd 6b 48 4e bf 89 34 5d 3e 66 c1 b6 3f
       -0.0440015 -0.8057925 0.21602072 1.427777
000010 0a 0b 5b 3f 24 f8 10 be 95 96 e9 3f 0f 97 e1 be
       0.8556372 -0.14157158 1.8249079 -0.4406056
000020 c4 30 e9 3e c6 4b 95 be 8f 61 11 bf c3 6d 50 bf
       0.45545018 -0.29159373 -0.5678949 -0.81417483
000030 4b 25 d7 bf b2 89 cc bf bd a7 52 be 61 80 d4 bf
       -1.6808256 -1.5979521 -0.205718 -1.6601678
000040 42 2a 0b 3e fc 7d 97 3f 72 2b b2 3f 9f 4e 58 bf
       0.13590339 1.1835322 1.3919508 -0.84494966
000050 19 d6 0f 3f d9 e7 d7 3e 30 c4 ba 3f 87 f3 58 3e
       0.5618606 0.42169073 1.4591122 0.21186648
000060 2d 33 ba 3f 4a 87 8e bf f0 e1 d7 bf 09 80 06 be
       1.4546868 -1.1135037 -1.6865826 -0.13134779
000070 00 79 af 3f 8a ac 6f bf b5 8b 6e 3f 54 62 d6 be
       1.3708801 -0.9362265 0.93181926 -0.41871893
000080 48 99 3c 3f e1 f5 b4 bf 29 34 43 bf 59 da 78 bf
       0.7367139 -1.4137536 -0.76251465 -0.9720817
000090 00 d1 89 3f 58 a8 26 be ba 6d 9e be d6 89 7c bf
       1.0766907 -0.16275156 -0.3094309 -0.9864782
0000a0 d0 a9 56 3f 82 ac 90 bf 09 7a 90 3e a2 48 bf 3f
       0.83852863 -1.1302645 0.28218105 1.4944041
0000b0 d8 df 97 bf c6 52 c2 be af bc 8e bf 08 25 d1 be
       -1.1865187 -0.37953776 -1.1151332 -0.40848565
0000c0 9c 16 cd 3f e9 0f 26 3f bf 49 81 3f 6b b7 7d be
       1.6022525 0.64868027 1.010063 -0.24777
0000d0 86 64 f6 be 38 20 0a c0 a1 38 0f 3f 42 aa 5c bf
       -0.48123568 -2.1582165 0.55945784 -0.8619729
0000e0 24 44 a7 3f db a4 b8 3f 99 19 73 3f 4b fb 86 bf
       1.306767 1.442531 0.94960934 -1.0545439
0000f0 98 42 e4 be ec e6 0a be ea 8f 3f bf b8 46 1f bf
       -0.44582057 -0.13564652 -0.7482897 -0.62217283

layer2.1.running_var f4 [64]
000000 d6 47 15 3f 1b 61 f0 3f 65 41 fc 3f 6a 58 4b 3f
       0.5831274 1.8779634 1.9707457 0.79431784
000010 57 3f 3c 40 c6 d9 cb 3f a0 0e 06 40 cd 12 8c 40
       2.941366 1.5925834 2.0946426 4.377295
000020 11 3e 0f 40 3e 49 24 3f ce fa ea 3f 77 55 0b 40
       2.2381632 0.6417426 1.835779 2.1770914
000030 2a ba c4 40 ad 8a 97 40 c8 20 f8 3f 58 34 9a 3f
       6.147725 4.735678 1.9385004 1.2047224
000040 5d 12 63 3f 65 7b 32 3f eb df 43 3f f0 5f 97 40
       0.88699895 0.69719535 0.76513547 4.730461
000050 bf 6d a9 3f dd 9a cb 3f 8c a2 1f 40 a1 50 25 3f
       1.3236617 1.5906636 2.494296 0.64576155
000060 0a 22 63 3f 8e 69 83 40 51 ae 6c 40 a6 7a 71 3f
       0.88723814 4.106635 3.6981394 0.9432777
000070 2b f2 c6 3f 69 5a 86 3f 03 a4 1b 3f 60 8e 2c 3f
       1.5542654 1.0496341 0.6079714 0.67404747
000080 6f 85 06 3f 92 8c a8 3f 95 f5 7e 3f c1 39 22 3f
       0.52547354 1.3167899 0.9959348 0.63369375
000090 2f b1 72 40 17 3d 10 40 8e 0c 3e 40 01 f2 88 3f
       3.7920644 2.2537286 2.9695163 1.0698854
0000a0 af 4d 2d 3f 25 e3 cc 3f ff fc 93 3f 59 ee bd 3f
       0.6769666 1.6006819 1.1561583 1.4838363
0000b0 3b 85 46 3f 76 49 a9 3f 98 0c 95 3f 6c 54 9f 3e
       0.77547044 1.3225543 1.1644468 0.31119096
0000c0 90 5c dd 3f d1 59 01 3f 71 b0 4b 40 38 c3 14 40
       1.7293873 0.50527674 3.1826441 2.3244152
0000d0 7d 75 25 40 3a b5 0b 40 ab 8a 4b 3f b8 bc 1e 40
       2.585296 2.1829362 0.79508466 2.4802685
0000e0 7f af 86 3f 73 34 b3 3f af e3 50 3f 11 cf 99 3f
       1.0522307 1.4000381 0.8159742 1.2016317
0000f0 6a 44 56 3f 6a 29 98 3f 13 10 18 40 4f bd dc 3f
       0.8369814 1.1887639 2.375981 1.7245272

layer3.0.weight f4 [64, 64, 3, 3]
000000 0d 40 de bd 72 a9 99 bc e6 e4 38 3d 0a a7 d9 3c
       -0.108520605 -0.018757556 0.04514017 0.026568908
000010 2d 4c 8b bd b7 0f 05 bd c6 75 37 3d 38 1b 07 3d
       -0.06801639 -0.03248569 0.044790052 0.032984942
000020 bd 0c 13 3d 25 e0 27 3e 27 68 75 3d 3d 65 a4 3d
       0.03590082 0.16394098 0.05991378 0.08027122
000030 93 f4 0c 3d ab ec 5c bc ca d6 c6 3c 05 24 27 bd
       0.03441293 -0.01348416 0.024272341 -0.040805835
000040 55 f6 20 bd 27 04 c8 bc 34 3f 59 3d 92 88 75 bc
       -0.03929742 -0.024416042 0.05303879 -0.014986174
000050 88 e7 d9 bc ff c1 bd bd 78 9f 29 3d b9 52 a5 bd
       -0.02659966 -0.092655174 0.041411847 -0.08072419
000060 56 d1 d3 bb 47 3c 9d bd 15 f7 59 bd 66 cc 12 3c
       -0.006464164 -0.076775126 -0.05321415 0.008959865
000070 97 0f 2a bc 91 0a 10 3c 0d 94 a8 bc 4a 2d 9b 3c
       -0.0103796935 0.008791582 -0.020578409 0.018942494
000080 36 8f dc bc 5c aa c3 bb 1f 06 01 be 02 c0 b3 bd
       -0.026923757 -0.005971236 -0.12599991 -0.08776857
000090 91 9c 03 bd f6 f6 a4 3c 1e ed d4 3c f9 f5 0d 3d
       -0.032131735 0.020137291 0.025991973 0.034658406
0000a0 34 11 ec bd 5e ce a0 3d 8d 60 e0 bb d1 a5 be 3d
       -0.11526719 0.078518614 -0.0068474473 0.09308971
0000b0 3d 4e 39 3d c3 d9 82 bd 88 bd fc 3d d3 1c f2 bd
       0.04524063 -0.06389191 0.12340838 -0.11821904
0000c0 e6 29 7c 3b 81 e4 09 3c b9 c4 d4 3c 2c c4 43 bc
       0.0038477122 0.008416296 0.02597271 -0.0119486265
0000d0 4e c4 90 3d 90 80 cd bd 60 e6 2e 3b cd 4d ae bd
       0.07068692 -0.10034287 0.0026687607 -0.08510933
0000e0 95 15 43 3b 66 ac d7 bd 20 36 3c bd 30 e8 60 bb
       0.0029767503 -0.10530929 -0.045950055 -0.0034318082
0000f0 3c 5d 1c 3d 82 04 9b bc b8 b6 78 bd 54 1b 0b bd
       0.038174853 -0.018923048 -0.06072113 -0.03396161
000100 d1 58 80 3c 66 f6 fe bc f9 05 92 ba c5 18 5d 3d
       0.015667351 -0.031123351 -0.0011140696 0.0539787
000110 a3 ca 76 bd 23 02 7b bd 30 53 04 3d 05 93 61 3d
       -0.060251843 -0.061281335 0.032305896 0.05507185
000120 fa 8e 08 bd 0d 18 87 ba a5 61 e2 bc ab 02 9a 3c
       -0.033339478 -0.001030685 -0.027634451 0.0188001
000130 1b b9 9d 3d 1a 7f 08 3c 5a 0c 06 3b cb 7e 57 bc
       0.07701322 0.008331085 0.002045414 -0.013152788
000140 8b 8a a5 bb 79 d3 c7 bd 79 c3 de 3c bc fd 3a bd
       -0.005051916 -0.09757132 0.027192818 -0.045652136
000150 11 32 97 3b da f5 5e 3c 80 b3 19 3c 47 e6 40 bd
       0.0046141227 0.01360842 0.009381175 -0.04709461
000160 c1 0c 85 3d d9 c2 86 bc 0f 4a 60 3d c5 57 d2 bd
       0.06496573 -0.016450332 0.054758128 -0.10270647
000170 4f 81 2d 3d ed ec b8 3c 2c df e7 bc 00 1f 17 bd
       0.042359646 0.022573913 -0.028304659 -0.0368948
000180 33 33 da 3b ee 46 04 bd 48 5d f4 3c d1 3f e3 bd
       0.0066589355 -0.032294206 0.029829636 -0.110961564
000190 c6 3b 01 bd 18 53 2a 3d 88 a2 11 bc 28 35 a3 3b
       -0.031551145 0.04158315 -0.008888848 0.004980702
0001a0 5a f8 61 bd 32 c0 0b bd 11 3c 12 3c e1 74 93 3d
       -0.055168487 -0.03411884 0.008925454 0.07200027
0001b0 fa 0a 97 bc 21 c3 b1 bd 21 80 fe 3b 83 59 74 bc
       -0.018437851 -0.08679796 0.007766739 -0.014913919
0001c0 24 0d cb bb 71 ab 78 3d dd c8 88 bd 30 80 28 3d
       -0.006196635 0.060710374 -0.06678937 0.041137874
0001d0 05 2c 00 be 44 5b 70 bd 40 1e 2b be 83 e1 59 3d
       -0.12516792 -0.058680788 -0.16710758 0.05319358
0001e0 12 ad ca bd 80 ab 91 3d a2 43 46 bd 37 76 ec 3c
       -0.09896292 0.07112789 -0.048404343 0.028864963
0001f0 ab 9f 20 3d 13 6b 2d 3d 38 7d b3 bd 50 40 9f bd
       0.03921477 0.042338442 -0.08764118 -0.077759385
000200 92 d3 cf bd 82 76 35 bd 7c 1a 88 bc d3 95 9e 3d
       -0.10147776 -0.04430247 -0.016614191 0.077434205
000210 6d da 69 3c 12 72 14 bd 70 59 50 3d bb 81 4a 3d
       0.014273268 -0.0362416 0.050866544 0.049440127
000220 63 f2 5d bd 4b 4b 0c bd a9 ab 53 bc 42 07 a7 bb
       -0.054186236 -0.034251492 -0.012919345 -0.0050973007
000230 4e 7f d7 bd 9b f0 04 3d 23 c4 96 3b 9a a3 3b 3d
       -0.10522328 0.03245602 0.004601018 0.04581032
000240 e6 06 8e 3d 4d 2c bf ba ed 95 ce bd fb 25 c9 bd
       0.069349095 -0.0014585346 -0.1008719 -0.09821697
000250 d8 9d 00 bd 80 1c 35 bc b9 31 64 bd e3 c2 a8 bb
       -0.03140053 -0.011054158 -0.05571148 -0.0051501854
000260 38 33 87 3d e1 a1 f1 bd 68 bf 7f bd 61 cb 38 3c
       0.06601566 -0.11798454 -0.0624384 0.011278958
000270 33 50 dc 3b 6c 33 70 ba cd 9d b1 bc 50 4b c7 3b
       0.0067234277 -0.0009162936 -0.02168169 0.006081976
000280 70 4d ef bc 4a 4c 89 3d 0d 58 04 be 09 a8 c6 3d
       -0.02921173 0.06704004 -0.12924214 0.09700019
000290 71 c6 23 3c 3c 19 de bd 6b d0 86 3c 24 25 50 bd
       0.009996043 -0.10844657 0.016456803 -0.05081667
0002a0 91 fa 09 3c e4 f1 08 3d 7b 65 3b bd f0 2a 75 3d
       0.008421556 0.03343381 -0.045751076 0.0598554
0002b0 ae fb 74 bd 1c bb 82 3b a3 09 1a 3d cd 90 09 be
       -0.059810333 0.0039895903 0.037606847 -0.13434143
0002c0 78 19 5c 3c 6b 5a 9a bd 36 7b 3a bc 17 d8 a5 3d
       0.013433807 -0.07536777 -0.011381915 0.080978565
0002d0 12 6d 7e 3d 14 13 23 bd e0 75 98 bc 82 59 96 3d
       0.062115736 -0.039813116 -0.018610895 0.07341291
0002e0 9d 04 97 3a 4d f3 6a 3d 2e 1d 9f bd bd e9 d7 bc
       0.0011521761 0.057360936 -0.077692375 -0.026356572
0002f0 df 95 8b 3c 4b ee 19 3d f0 5c 3e 3c 0e 21 7c bd
       0.017039238 0.03758077 0.011618838 -0.06155496
000300 e6 16 97 3c c1 ab 39 3c f2 af 86 bd 21 eb 2b bc
       0.018443536 0.011332453 -0.06576528 -0.010493071
000310 7b d0 32 3c 27 96 c5 3c a7 a5 82 3c 38 f5 bb bd
       0.010913963 0.02411945 0.01594813 -0.09177631
000320 2b 27 8f 3c b5 7e 78 3d eb 81 9d bd 90 87 f2 bd
       0.017474731 0.060667712 -0.076907955 -0.11842263
000330 af 39 9e bd 84 bc ed bc 4d 5c 1d 3c 68 23 18 3d
       -0.07725846 -0.029020555 0.009604526 0.03714314
000340 69 de 8e 3b 9d 23 f0 3c 0f a0 de bd 7f 96 37 bd
       0.0043600095 0.029313857 -0.108703725 -0.04482126
000350 de 6b 5f bd 7e 93 10 bd b8 f9 27 bc b3 22 60 3a
       -0.05454623 -0.03529691 -0.010252409 0.00085500925
000360 63 2b 80 3d 7d a6 52 bd 9b 89 e2 bc a6 82 e5 3d
       0.06258275 -0.051428307 -0.027653506 0.1120656
000370 5e 39 b2 bb ab db 6d bb 3c db b1 bc 12 c0 fd bb
       -0.0054389676 -0.0036294262 -0.021710984 -0.007743844
000380 d2 d1 6b bd 2c eb 02 3d ad 39 db bc 84 b2 ac 3d
       -0.057573147 0.03196256 -0.0267609 0.08432487
000390 5f b4 e1 3c 8b c4 c3 3c 5f 9c 14 3c e5 88 82 bd
       0.027551828 0.02389743 0.009070485 -0.06373767
0003a0 bb c8 3c bd 4e 02 db bc ac 7a c8 bd 57 5c 24 3b
       -0.04608987 -0.026734497 -0.09789023 0.0025079453
0003b0 9a 5c 1b be 21 5c a3 3c 62 16 9c bd f5 45 2b 3d
       -0.15172043 0.019941391 -0.07621457 0.041814763
0003c0 47 32 d0 bc 88 7d bb bb 74 f3 47 3d 25 4b ee 3c
       -0.0254146 -0.0057217516 0.04881616 0.029088566
0003d0 ba 6d 04 3d 66 79 f0 bb b6 db d5 bd 7a fd 67 bd
       0.032331206 -0.0073386906 -0.10442297 -0.05663822
0003e0 a0 fd a6 3b 43 8b 8d 3d da 12 70 3d c1 76 f4 b9
       0.0050961524 0.06911328 0.05861173 -0.00046627785
0003f0 0a 22 24 bd 9b 2a c0 bc e4 76 04 bc 7d e9 4e 3d
       -0.040071525 -0.023457816 -0.008084986 0.05051564

layer3.0.bias f4 [64]
000000 0a 5a 04 b7 06 e3 d6 b5 a8 d8 b3 b5 29 14 41 34
       -7.888777e-06 -1.6010315e-06 -1.3399595e-06 1.798186e-07
000010 f6 00 f9 36 72 3b de 36 5d f8 f9 36 40 b6 70 35
       7.42089e-06 6.623036e-06 7.4496916e-06 8.9672176e-07
000020 82 74 7e 36 c4 2c 15 b4 29 74 55 36 50 69 1c 35
       3.7916766e-06 -1.3892992e-07 3.1807087e-06 5.826778e-07
000030 23 e8 0e 37 8f 4c 4b 36 58 0e ec 34 f9 6c 0d 37
       8.517908e-06 3.029392e-06 4.3968862e-07 8.429627e-06
000040 7d 54 8d b6 55 77 15 b5 77 fb 5a 35 d0 6f 5c b6
       -4.211963e-06 -5.5680476e-07 8.157726e-07 -3.2847638e-06
000050 1a d9 48 35 8a 1b 55 b6 cd 88 26 b6 99 fe 5c b6
       7.482173e-07 -3.1755503e-06 -2.4815556e-06 -3.293075e-06
000060 94 32 22 36 18 5e 3a b5 fd df ac b6 2e 9c 2a b4
       2.4169321e-06 -6.9427324e-07 -5.152075e-06 -1.5889302e-07
000070 73 3b 43 36 fb b9 39 36 6c 1b de 36 b7 36 e2 b5
       2.9091868e-06 2.7675403e-06 6.619308e-06 -1.6854236e-06
000080 8f 72 46 b6 94 f7 d8 b4 0f 64 80 35 b5 36 5f b6
       -2.957098e-06 -4.0413272e-07 9.565864e-07 -3.3261433e-06
000090 88 55 0e 35 33 29 fe b5 7b 02 f8 b6 2b 10 82 35
       5.3023587e-07 -1.8936465e-06 -7.3912647e-06 9.69046e-07
0000a0 88 26 54 b5 0b 7b 8c 35 b9 1f ba b6 e6 a1 24 36
       -7.9032225e-07 1.0466623e-06 -5.546925e-06 2.4532142e-06
0000b0 d1 88 c3 34 71 76 bd 35 2e 34 ab 35 29 ea 0a b7
       3.6421127e-07 1.4116068e-06 1.2755679e-06 -8.279961e-06
0000c0 4d a9 48 36 6f df bb b6 9e 77 48 b5 25 7c 46 b5
       2.9900868e-06 -5.5990454e-06 -7.467987e-07 -7.39414e-07
0000d0 c2 8c 9b 35 74 53 9a 36 e0 4a 4a b4 44 ff 7d 36
       1.1589366e-06 4.599273e-06 -1.8839955e-07 3.7848522e-06
0000e0 2e e1 5e b6 8b 6c b8 b5 2f 95 17 b6 07 57 87 35
       -3.321165e-06 -1.3740658e-06 -2.258759e-06 1.0083612e-06
0000f0 98 65 5f b6 60 b9 9e 35 3b c2 29 36 8c 54 0a 36
       -3.3288725e-06 1.1825869e-06 2.529602e-06 2.0612815e-06

layer3.1.weight f4 [64]
000000 12 6e 7e 3f 0f a1 7c 3f 16 be 7c 3f a4 8b 80 3f
       0.99386704 0.98683256 0.9872755 1.0042615
000010 f7 67 80 3f a2 a8 7e 3f 49 63 82 3f e9 15 7e 3f
       1.0031728 0.99476063 1.018655 0.9925218
000020 8d 3e 80 3f da c8 80 3f fa 14 81 3f 61 99 7e 3f
       1.0019089 1.0061295 1.0084527 0.9945279
000030 ed 6a 80 3f 27 51 81 3f 25 18 80 3f 83 2c 80 3f
       1.0032631 1.0102891 1.0007368 1.0013584
000040 02 c3 7e 3f d8 73 80 3f 14 db 7f 3f 09 02 80 3f
       0.9951631 1.0035353 0.9994366 1.0000621
000050 71 3b 81 3f 97 75 80 3f 19 39 7f 3f da 4a 81 3f
       1.0096265 1.0035886 0.996965 1.0100968
000060 9f 7f 7d 3f ed 58 80 3f 91 b0 7e 3f bd 38 7d 3f
       0.9902286 1.0027138 0.9948817 0.989147
000070 83 0e 7d 3f dd e0 7e 3f 66 f4 7e 3f 60 c1 7e 3f
       0.9885027 0.99561864 0.9959167 0.99513817
000080 d6 57 80 3f 62 85 7d 3f 5d fd 7e 3f 74 a2 7c 3f
       1.0026805 0.9903165 0.9960535 0.98685384
000090 51 f4 7f 3f d1 5e 81 3f e5 ab 7e 3f 62 20 80 3f
       0.9998217 1.0107061 0.9948104 1.0009882
0000a0 73 29 7f 3f 4b d0 80 3f 33 df 7d 3f 8b 9a 7e 3f
       0.9967262 1.0063566 0.991687 0.99454564
0000b0 90 81 81 3f b2 54 81 3f 37 03 80 3f 35 fc 7f 3f
       1.0117664 1.0103972 1.0000981 0.9999421
0000c0 c2 a3 80 3f 4c d7 7e 3f e9 b5 81 3f 5c 9f 7c 3f
       1.0049975 0.99547267 1.013364 0.98680663
0000d0 c0 1d 81 3f 41 45 80 3f 17 61 80 3f 62 15 82 3f
       1.0087204 1.0021135 1.002963 1.0162776
0000e0 1e 5a 7c 3f f6 33 81 3f 87 d4 7e 3f d7 05 7e 3f
       0.9857501 1.0093982 0.9954304 0.9922766
0000f0 bc 64 7d 3f b4 0c 7e 3f 15 0b 7f 3f 03 e6 7f 3f
       0.98981833 0.99238133 0.99626285 0.99960345

layer3.1.bias f4 [64]
000000 37 1d 10 ba 0a 62 97 3b 10 24 af bb 35 ed 14 3c
       -0.00054975174 0.0046198415 -0.005344875 0.009089758
000010 cf ea af 3b 18 72 e0 3b 76 b9 8a 3c 89 ee 04 3c
       0.0053685675 0.0068495385 0.016934138 0.008113512
000020 6d 28 1e 3b fa d1 a5 3b b4 60 8c 3c cf f4 8a 3b
       0.0024132982 0.0050604315 0.017135955 0.0042406092
000030 56 83 5c bb 91 78 66 3c 8b d4 c4 39 9b b9 08 3c
       -0.0033647618 0.014066831 0.0003754239 0.008345033
000040 9b cb c8 3b a2 ac 09 3c 51 73 39 3c b0 21 f0 3b
       0.0061277873 0.008402975 0.0113189975 0.0073282346
000050 8e 8e 8c 3c 86 7a 0a 3c 2f 8e 8d ba 0c ea ea 3b
       0.01715782 0.008452063 -0.001079982 0.007169014
000060 30 da da ba 38 d5 3a 3b 1f 19 05 bc b1 27 9b 3b
       -0.0016697105 0.0028508436 -0.008123665 0.004734956
000070 81 ca 2e bc cd e3 9f 3b c8 b3 ac 3b 21 8d 42 bb
       -0.010668398 0.004879451 0.005270455 -0.002968617
000080 c8 cb ed 3b ca 83 13 3a 8a 9b c7 bb 6f 50 82 3a
       0.0072569586 0.0005627243 -0.0060915397 0.0009942184
000090 a6 31 c9 3b 2e 6f 48 3c 71 32 2a bc 40 f6 4f 3c
       0.0061399518 0.012233539 -0.010388003 0.012692988
0000a0 38 c5 56 bb 25 2b 0f 3c d1 09 17 bc a1 54 46 bc
       -0.003277136 0.008738314 -0.009218649 -0.012105138
0000b0 e2 c1 50 3b 44 4d cc 3b c3 60 43 3b 6f 8d 12 b9
       0.0031853844 0.0062347967 0.0029812313 -0.00013976333
0000c0 57 b7 82 3c 5f 4e 0a bc 8a 3f 84 3c 37 07 4c bc
       0.015956564 -0.008441537 0.016143579 -0.012452892
0000d0 15 97 63 3c d5 00 2c 3c 3e ee 1e 3b 20 8b 36 3c
       0.013891001 0.010498245 0.002425089 0.011141568
0000e0 41 cf 39 bc ee 94 38 3c 66 fe 0a 3c 31 83 14 3c
       -0.011340917 0.011265976 0.008483505 0.009064482
0000f0 81 79 04 3b 45 b6 bd ba 0b 19 d1 bb 86 f2 76 3c
       0.0020214024 -0.0014473876 -0.006381159 0.0150724705

layer3.1.running_mean f4 [64]
000000 7a 85 94 bf 4a fe 6a bf 3d e8 20 bf 37 95 43 3e
       -1.1603234 -0.91794264 -0.6285437 0.1909989
000010 f7 60 b4 bf a8 27 a3 3e 51 14 4c bf c6 df c3 bc
       -1.4092091 0.31866193 -0.797185 -0.023910414
000020 86 cb 0c 3e 75 6b d4 be c8 e9 9c bf f8 92 d3 3e
       0.13749513 -0.41488233 -1.2258844 0.41323066
000030 c7 8a a0 bf 6c d9 45 be aa 39 d7 bf ef 55 bc bf
       -1.2542351 -0.19321221 -1.6814473 -1.4713725
000040 84 ba fb be 01 53 fd bf cf df 63 bb 18 b6 c3 bd
       -0.49165738 -1.9790956 -0.0034770851 -0.09556216
000050 69 00 cc 3f 19 8f 00 c0 e0 ef 6e bf 08 07 78 bf
       1.5937625 -2.008734 -0.9333477 -0.9688573
000060 91 81 91 be 47 fe e4 3d 38 2b 6f be 2f 22 e9 3d
       -0.28419164 0.11181312 -0.2335633 0.11383473
000070 74 ca 87 3f c1 6a c0 3f 03 48 95 be 88 9c b2 bf
       1.0608659 1.5032579 -0.29156503 -1.395402
000080 da cd 8c 3e fd 87 ec 3d 0c 64 35 bf 21 bc de bf
       0.27500802 0.11549375 -0.70855784 -1.7401162
000090 1e d0 73 3f 1f ce b5 be 04 fb b2 3f 92 34 f2 3e
       0.95239437 -0.3550882 1.3982854 0.47305733
0000a0 aa 47 3d 3d 21 2a 80 be 33 6a 4d bf 19 1b 1a bf
       0.046210922 -0.25032142 -0.8024017 -0.601976
0000b0 d1 07 97 3e 09 64 24 bf 33 26 c5 bf 9d e3 94 3e
       0.2949815 -0.6421514 -1.5402282 0.29079905
0000c0 ff 54 21 3f 78 54 15 3e 2f 0e 8c bf 84 d9 c8 be
       0.6302032 0.14583004 -1.0941828 -0.3922845
0000d0 30 5f 3d bb 7f ba 63 bf 35 78 1b bf 83 f7 e3 be
       -0.0028895847 -0.88956445 -0.60730296 -0.44524774
0000e0 eb 3e fc be a1 0b 2a bf 76 8c 0e bf 63 10 1f 3f
       -0.49266753 -0.66423994 -0.55683076 0.6213438
0000f0 a3 1a 68 bf 56 a0 91 bf b0 da b9 3e 95 df 03 be
       -0.90665644 -1.1377056 0.36299658 -0.12878259

layer3.1.running_var f4 [64]
000000 49 34 01 40 5e 76 71 40 58 d1 9e 3f a9 b3 ac 3f
       2.0188162 3.7728496 1.2407637 1.3492328
000010 2d d3 00 3f 3e da 89 3f 04 c0 ee 3f 2e 67 7c 3f
       0.5032223 1.0769727 1.8652349 0.9859494
000020 05 4d 84 3f 9a a8 50 3f 43 13 37 40 a3 0e a5 3f
       1.0336004 0.81507266 2.8605506 1.2895092
000030 27 16 54 3f 6e 44 23 40 a9 1d 71 40 2b 79 fa 3f
       0.828463 2.5510516 3.7674353 1.9568228
000040 2c b6 d1 3f 7e 96 57 40 41 43 14 3f aa c8 37 3f
       1.638372 3.3685603 0.5791512 0.71790564
000050 30 d4 29 40 9b a5 42 40 11 9f 91 3f 8e 25 13 40
       2.653576 3.0413578 1.1376668 2.2991672
000060 0f b9 72 3f 25 68 10 40 f5 f8 88 3f 57 46 93 3f
       0.94813627 2.2563565 1.0700976 1.1505841
000070 d8 78 9a 3f 57 08 77 3f 64 62 5a 3f 5e a6 3f 40
       1.2068129 0.964971 0.8530638 2.9945292
000080 a4 20 df 3f ba 2d 31 3f bd 49 8d 3f 3f b6 06 40
       1.7431836 0.692104 1.1038128 2.1048734
000090 6e 60 b3 3f a3 d5 6f 3f 48 e6 cf 3f 88 64 0b 40
       1.4013803 0.9368536 1.6242151 2.178011
0000a0 d3 a6 31 3f 66 84 66 3f 95 ab fc 3f db e6 3d 40
       0.6939518 0.90045774 1.9739863 2.9672153
0000b0 12 f1 41 40 b4 04 24 40 0a 22 20 40 57 7a a7 3f
       3.0303388 2.562787 2.5020776 1.308421
0000c0 87 98 8c 3f ae 59 b2 3f a5 09 9e 3f ef cb 9d 3f
       1.0984048 1.3933618 1.2346693 1.232786
0000d0 6b 9f 62 3f dc 8a bb 3f 0f 35 dd 3f 0e 40 73 40
       0.885245 1.4651752 1.7281817 3.8007846
0000e0 05 28 93 40 23 01 8f 3f 07 0d c3 3f 10 06 e1 3f
       4.598635 1.1172222 1.5238351 1.7579975
0000f0 74 56 dc 3f 12 3f 46 3f 77 b7 a1 3f 58 d9 9e 3f
       1.7213883 0.7743999 1.2634114 1.2410078
